Travelling App Login Page/.dart_tool/chrome-device/Default/optimization_guide_prediction_model_downloads/30b700d1-774b-4075-ae5b-16ba5b2d6ea8/model.tflite (tflite, 67216 bytes, 5 tensors)

dnn/hiddenlayer_1/bias/part_0 f4 [64]
0.07014191 0.044569563 0.03582709 0.074257165 0.0581586 0.00697335 0.071935974 0.00040462875
-0.046281096 0.09476191 -0.012819173 0.107060015 -0.045572657 0.0011329469 -0.06344454 0.0077720666
-0.040282838 -0.021575779 -0.021936726 -0.03040772 -0.0466844 -0.022436056 -0.038282454 -0.00391938
-0.006230337 -0.00474491 -0.018833818 -0.0011615835 -0.019360099 -0.01016743 -0.0535003 -0.023645684
0.06912157 0.10141727 0.0132731525 -0.0024333321 0.008927299 0.017648121 0.012134955 -0.0310541
-0.008872293 0.008007327 0.047336303 -0.0066215214 0.08322788 0.0094768545 0.004580356 0.10910383
0.06456962 -0.03217004 0.021450603 0.014052482 0.005849484 -0.014197921 0.026154444 0.048743807
-0.05297779 -0.051350385 -0.0068022534 -0.036018558 -0.03525128 -0.005715751 0.12570155 0.030218193
00000000: 90a6 8f3d 938e 363d 6dbf 123d 2414 983d
00000010: b637 6e3d b380 e43b 2b53 933d 5a24 d439
00000020: 3f91 3dbd 8812 c23d 8207 52bc 4842 db3d
00000030: 65aa 3abd 647f 943a 36ef 81bd d2ac fe3b
00000040: 9eff 24bd b0bf b0bc a6b4 b3bc 9c19 f9bc
00000050: 2438 3fbd d2cb b7bc 10ce 1cbd 246e 80bb
00000060: db27 ccbb 317b 9bbb 6149 9abc 4640 98ba
00000070: 1299 9ebc 4b95 26bc 2123 5bbd 98b4 c1bc
00000080: 9c8f 8d3d dcb3 cf3d a377 593c 8a78 1fbb
00000090: ce43 123c cb92 903c b1d1 463c 2b65 febc
000000a0: 185d 11bc 2a31 033c b6e3 413d 59f9 d8bb
000000b0: 6173 aa3d cf44 1b3c d016 963b d471 df3d
000000c0: 143d 843d bbc4 03bd 2db9 af3c 623c 663c
000000d0: 07ad bf3b 669e 68bc d841 d63c 96a7 473d
000000e0: 3dff 58bd c854 52bd 70e5 debb 3288 13bd
000000f0: a563 10bd 324b bbbb e8b7 003e 258c f73c

dnn/hiddenlayer_0/bias/part_0 f4 [128]
-0.093774915 8.405719e-06 -0.10657245 -0.0397093 -0.015010776 0.1322575 0.04101682 0.0678185
0.005178275 0.010609244 -0.0020431422 0.05701111 0.030270658 0.040916793 -0.043540753 0.0064055617
0.0008994147 0.019784288 0.01659387 0.013974628 -0.06955391 -0.028378429 0.03805593 -0.08971301
-0.044137083 -0.08090294 0.016185924 -0.08468408 0.048728097 -0.057049666 -0.07384911 -0.030813036
-0.083504416 -0.007020235 -0.04670736 -0.015074864 0.03720568 -0.00024585685 -0.005230795 0.008533064
-0.02927362 -0.039919823 -0.012467816 -0.12222316 0.036806118 -0.0025149544 0.029562829 0.010417084
-0.027091663 -0.024485087 -0.026071407 0.04867235 0.039549254 0.0582145 0.0730312 0.001588066
0.030329948 0.07322252 -0.137602 -0.06691722 -0.047106296 -0.019796211 -0.013627988 0.084489316
0.108124435 0.030599432 -0.027372727 0.043751832 0.028696928 0.08173949 0.059256498 0.03136768
-0.16244596 -0.006500923 -0.049566615 0.04901332 0.012059137 -0.15374409 -0.05055597 0.034343943
-0.06471341 -0.040767882 0.037317827 0.04572314 -0.09538076 -0.063256174 0.07094985 -0.108882114
-0.052856117 -0.041386355 -0.03942711 0.027625462 -0.12529269 0.052002735 0.02020878 -0.124019645
-0.028884426 -0.13733073 0.03749692 0.11764046 0.09873918 -0.029874599 -0.010342858 0.028253013
0.04302653 -0.04115549 -0.01002112 -0.026673263 -0.03393752 -0.00047461077 -0.020564659 -0.009989056
-0.0076718642 0.0021237037 0.052802082 0.053755056 0.110344745 -0.097055204 -0.085541785 -0.12776019
0.011119652 0.1522918 -0.03979644 0.07258968 0.017437352 -0.07257124 0.041415133 -0.03132435
00000000: 100d c0bd 4a06 0d37 a842 dabd 38a6 22bd
00000010: c2ef 75bc 836e 073e 4101 283d 6de4 8a3d
00000020: 85ae a93b 65d2 2d3c 3de6 05bb 7b84 693d
00000030: 2cfa f73c 5e98 273d ca57 32bd bfe5 d13b
00000040: b3c6 6b3a a912 a23c deef 873c d7f5 643c
00000050: 4872 8ebd e179 e8bc 89e0 1b3d 74bb b7bd
00000060: 16c9 34bd 71b0 a5bd 5898 843c d96e adbd
00000070: 1d97 473d e9ac 69bd 343e 97bd 9f6b fcbc
00000080: 5d04 abbd 000a e6bb 3750 3fbd 90fc 76bc
00000090: fc64 183d 59e6 80b9 1767 abbb 44ce 0b3c
000000a0: 3bcf efbc f882 23bd cf45 4cbc 2350 fabd
000000b0: 03c2 163d efd1 24bb bf2d f23c 6bac 2a3c
000000c0: 56ef ddbc f394 c8bc b493 d5bc a85c 473d
000000d0: 66fe 213d 5472 6e3d 6291 953d a726 d03a
000000e0: 8376 f83c b0f5 953d 8ae7 0cbe e50b 89bd
000000f0: 88f2 40bd aa2b a2bc ed47 5fbc bc08 ad3d
00000100: 5870 dd3d a9ab fa3c c53c e0bc 1f35 333d
00000110: d215 eb3c 0967 a73d f1b6 723d 657b 003d
00000120: 3c58 26be b205 d5bb 5d06 4bbd 31c2 483d
00000130: b093 453c 176f 1dbe c713 4fbd 3cac 0c3d
00000140: 7788 84bd 39fc 26bd 94da 183d 3048 3b3d
00000150: fd56 c3bd 748c 81bd 284e 913d 96fd debd
00000160: a87f 58bd bd84 29bd 527e 21bd cb4e e23c
00000170: ba4c 00be d200 553d e28c a53c 03fe fdbd
00000180: 089f ecbc 6da0 0cbe 5f96 193d 7bed f03d
00000190: c437 ca3d 93bb f4bc 1775 29bc dd72 e73c
000001a0: 963c 303d a992 28bd a02f 24bc e381 dabc
000001b0: 1202 0bbd 2ed5 f8b9 3777 a8bc 23a9 23bc
000001c0: 4364 fbbb d62d 0b3b ff46 583d 432e 5c3d
000001d0: 6dfc e13d e1c4 c6bd 8830 afbd 91d3 02be
000001e0: 332f 363c 62f2 1b3e 9801 23bd e6a9 943d
000001f0: c7d8 8e3c 3ba0 94bd eaa2 293d f64d 00bd

dnn/hiddenlayer_0/MatMul f4 [128, 12]
0.1953674 -0.03932033 -0.09264183 0.18679415 0.014484029 -0.011192764 -0.2032291 0.049866047
-0.0037106571 0.110256314 0.033496317 -0.035216533 0.11287361 0.13728628 -0.06497788 -0.20937149
0.13815327 0.13036382 0.15523903 -0.1932947 -0.0871745 0.13422678 0.097178265 0.027664382
0.043257225 0.14205201 -0.2938522 0.12570553 0.2108671 -0.07232695 -0.048688207 -0.108633615
0.030467516 -0.0016995699 0.0057299137 0.049127683 -0.20320679 0.17730758 -0.2092027 -0.049764622
-0.15655671 -0.046643037 -0.15898155 -0.021488724 0.19438225 0.21124099 -0.01314086 -0.008259219
-0.02214694 0.15404865 -0.0954042 0.14412409 -0.03513046 -0.2587629 0.18242763 0.10353394
0.06736701 -0.023760108 -0.16538322 -0.020103287 -0.12365313 0.14390375 -0.069580294 0.13338517
0.048109945 -0.032642193 -0.13740472 -0.16461432 -0.028069591 -0.1719399 0.21098652 0.26051158
-0.10997483 -0.14057331 -0.041790806 0.09236273 -0.04796864 0.027646674 -0.027520722 0.03209686
-0.1673925 0.013556859 -0.13114366 0.03875158 -0.008271341 0.033560287 0.11130011 -0.11755656
-0.1107075 0.109630175 0.040172867 0.10715148 0.10645619 -0.17747302 0.22854899 -0.2573106
-0.034841467 0.17556602 0.20095757 0.17724694 0.13325064 -0.13133617 0.1457122 0.042280145
-0.017244462 -0.006224628 -0.2663063 0.108871475 -0.19878127 -0.117434934 -0.15553683 -0.22204569
-0.23200555 -0.044575255 -0.19547924 -0.16827883 0.25426874 0.101039946 -0.05567337 -0.12869987
0.22016488 -0.094881624 -0.03969235 -0.13073753 0.097546354 0.12677343 0.09965633 0.0663259
-0.18391477 0.16280444 -0.035660196 -0.088407435 0.19676955 -0.056566797 -0.00016391445 0.12173702
-0.14900962 0.01807358 0.011206795 -0.11332618 -0.1873922 -0.017984653 0.15776019 0.23642173
0.18999064 -0.07650498 -0.07401157 0.14257625 0.16750546 -0.13232312 0.042384736 -0.05876251
0.04388302 -0.034867924 0.28562072 -0.13485138 -0.044887852 -0.021152359 0.22495043 -0.19255874
-0.15027274 -0.11177517 0.08130154 -0.036679175 -0.06687575 -0.02676288 -0.25375283 0.004429826
-0.16348535 -0.09798541 -0.15448284 -0.1741929 0.1956733 0.07604537 -0.18045092 -0.09598129
0.13672747 -0.012415032 -0.01488119 -0.046010297 -0.18662824 -0.11480101 0.1362165 -0.13117675
-0.19518113 0.041727133 0.05888508 -0.19670811 -0.005983525 0.07654745 0.10495277 0.025653096
-0.05126445 -0.09263495 0.13829304 0.08003817 0.18067901 0.15858234 0.08125657 0.0050284266
-0.02656553 -0.1576402 -0.08044135 0.0012880943 0.1465505 0.13414477 0.051803164 0.10909725
0.06378393 0.01699101 -0.15295888 0.11050681 -0.1254269 -0.15050326 -0.085867405 0.19275557
0.14369419 0.028372046 -0.03564887 0.027759153 0.030869791 0.20282072 -0.15972148 0.012752481
-0.111715816 0.20334096 -0.024839533 0.16129704 -0.08861162 -0.05808029 -0.040854413 0.14971271
-0.11422212 -0.14474525 -0.14543582 -0.079714246 -0.061944667 -0.19746055 -0.0732148 0.11075612
-0.14734328 0.056210585 -0.23827629 -0.10276838 -0.04702944 -0.16420996 -0.03394621 -0.110879056
0.019137159 -0.04198002 -0.17020871 -0.05894208 0.014819245 -0.061346672 0.025587354 -0.03899237
00000000: 640e 483e 5b0e 21bd 00bb bdbd f746 3f3e
00000010: 6c4e 6d3c db61 37bc 4a1b 50be 5740 4c3d
00000020: 7f2e 73bb 10ce e13d 6f33 093d 363f 10bd
00000030: 472a e73d c694 0c3e 1f13 85bd 7b65 56be
00000040: 0d78 0d3e 187e 053e fbf6 1e3e 0cef 45be
00000050: 8b88 b2bd bf72 093e 6605 c73d 6aa0 e23c
00000060: 7d2e 313d 1576 113e cc73 96be f3b8 003e
00000070: 8ced 573e 2720 94bd 496d 47bd 4d7b debd
00000080: 0397 f93c 1ac4 deba 00c2 bb3b 1c3a 493d
00000090: 7115 50be 1e90 353e 3c39 56be fdd5 4bbd
000000a0: 6750 20be c50c 3fbd 0fcc 22be 1f09 b0bc
000000b0: 240c 473e 8f4f 583e c34c 57bc ad51 07bc
000000c0: 806d b5bc eebe 1d3e 4763 c3bd 4495 133e
000000d0: f5e4 0fbd 927c 84be 4fce 3a3e 9a09 d43d
000000e0: b7f7 893d 8fa4 c2bc 385a 29be a6af a4bc
000000f0: da3d fdbd 815b 133e 1d80 8ebd 1f96 083e
00000100: ef0e 453d d2b3 05bd d3b3 0cbe a890 28be
00000110: 33f2 e5bc 0311 30be da0c 583e c661 853e
00000120: 7c3a e1bd 73f2 0fbe d62c 2bbd ac28 bd3d
00000130: c47a 44bd 477b e23c 2373 e1bc ff77 033d
00000140: f168 2bbe 971d 5e3c 864a 06be fab9 1e3d
00000150: 8584 07bc 8376 093d 50f1 e33d 7ec1 f0bd
00000160: 9dba e2bd c985 e03d 4e8c 243d 3c72 db3d
00000170: b405 da3d 7dbb 35be bf08 6a3e 37be 83be
00000180: edb5 0ebd 94c7 333e d2c7 4d3e 3980 353e
00000190: db72 083e fd7c 06be 9435 153e f22d 2d3d
000001a0: 4244 8dbc f7f7 cbbb 4d59 88be 02f8 de3d
000001b0: 518d 4bbe ba81 f0bd 0c45 1fbe f25f 63be
000001c0: dd92 6dbe 8b94 36bd b62b 48be 4951 2cbe
000001d0: 832f 823e 08ee ce3d c209 64bd e6c9 03be
000001e0: e772 613e 4c51 c2bd 7294 22bd 0fe0 05be
000001f0: 62c6 c73d e5d0 013e 9e18 cc3d e0d5 873d
00000200: 2754 3cbe 35b6 263e 6d10 12bd f50e b5bd
00000210: f57d 493e 96b2 67bd 73e0 2bb9 4251 f93d
00000220: fa95 18be 0b0f 943c b59c 373c 8e17 e8bd
00000230: bee3 3fbe 8d54 93bc e38b 213e 8a18 723e
00000240: e88c 423e a5ae 9cbd 6193 97bd 82ff 113e
00000250: 8d86 2b3e b67f 07be 9e9b 2d3d f5b0 70bd
00000260: aebe 333d abd1 0ebd e13c 923e 7b16 0abe
00000270: 53dc 37bd b647 adbc 6859 663e 1e2e 45be
00000280: 19e1 19be 61ea e4bd 6c81 a63d e73c 16bd
00000290: 27f6 88bd d43d dbbc e4eb 81be 1328 913b
000002a0: b468 27be 93ac c8bd c030 1ebe a05f 32be
000002b0: 955e 483e adbd 9b3d 20c8 38be d791 c4bd
000002c0: 4902 0c3e 6b68 4bbc 3cd0 73bc 4b75 3cbd
000002d0: 791b 3fbe cb1c ebbd 577c 0b3e 3353 06be
000002e0: 90dd 47be 12ea 2a3d 7b31 713d da6d 49be
000002f0: 7211 c4bb e9c4 9c3d 7af1 d63d 7126 d23c
00000300: acfa 51bd 65b7 bdbd b19c 0d3e 0deb a33d
00000310: eb03 393e 6963 223e d869 a63d 80c5 a43b
00000320: f49f d9bc 6f6c 21be 6fbe a4bd 46d5 a83a
00000330: 5611 163e 3f5d 093e 8e2f 543d 616e df3d
00000340: 26a1 823d bb30 8b3c 41a1 1cbe 6551 e23d
00000350: e96f 00be 871d 1abe 40db afbd b761 453e
00000360: 9224 133e 7e6c e83c 8d04 12bd 2a67 e33c
00000370: a5e2 fc3c 3cb0 4f3e 078e 23be c8ef 503c
00000380: 43cb e4bd 9d38 503e 477c cbbc 0d2b 253e
00000390: 027a b5bd 99e5 6dbd f556 27bd 4a4e 193e
000003a0: 49ed e9bd 1938 14be 21ed 14be 3941 a3bd
000003b0: b1b9 7dbd 1933 4abe a4f1 95bd 1bd4 e23d
000003c0: 28e1 16be 123d 663d b3fe 73be 3a78 d2bd
000003d0: f1a1 40bd a826 28be 2e0b 0bbd 8f14 e3bd
000003e0: 88c5 9c3c 3ef3 2bbd 314b 2ebe 406d 71bd
000003f0: 6bcc 723c a646 7bbd 929c d13c 77b6 1fbd

dnn/hiddenlayer_1/MatMul f4 [64, 128]
0.06421103 0.19338016 0.088256806 0.12039923 -0.19124182 -0.14779437 0.04923554 0.14209913
-0.10098362 0.16005309 0.09412545 0.07299598 0.10549952 0.05593261 0.18907274 -0.14042428
-0.15521097 -0.019951224 -0.14403665 0.14945686 0.13734141 -0.014527174 -0.12040481 -0.10505417
0.03752665 0.11116877 0.13297983 -0.12666346 0.04454721 0.06684578 0.14855435 -0.13167821
0.03996795 0.15400274 -0.067792535 -0.08646844 0.12145617 0.17227736 -0.03475969 0.12657633
0.03299676 0.15365045 -0.048647832 -0.14747888 -0.1404541 0.09963817 0.15505767 0.2182749
-0.12482381 -0.046764042 0.12992066 -0.06601095 -0.11857384 0.21980847 0.064751595 0.09846904
-0.16807711 0.066393495 -0.05860593 -0.018642005 -0.007717535 -0.13756263 -0.10642249 0.1694451
0.1449507 -0.09690024 0.018260362 0.18087503 -0.069098815 -0.08445613 0.060797125 -0.14436285
-0.05243531 -0.09195924 0.0984476 0.05174738 -0.038717616 -0.037583753 -0.0013580085 -0.13266473
0.05978611 0.12253257 -0.034547176 -0.08582399 -0.018061338 0.009246173 0.04676809 0.19231935
0.034255654 -0.05805062 0.06413269 -0.07661566 -0.15082063 0.19520937 -0.13270105 -0.01582092
0.12582564 0.073458955 0.070821226 0.026573423 -0.01019794 -0.20777962 0.07254728 0.109697685
0.03008929 0.18463181 -0.079669654 0.10679215 -0.09562997 -0.12229374 -0.18759994 -0.036018904
-0.011596548 0.06819072 0.19359966 0.15029573 0.040065106 -0.026472203 0.00068255834 -0.09552823
0.029478723 0.16964105 -0.06976613 0.14865217 -0.058982033 -0.16110712 -0.11210134 0.004689682
-0.096108764 -0.09874015 0.14582004 0.11195275 0.1453213 0.1441421 -0.13152534 0.05502482
-0.13440184 0.20326196 0.0020825665 0.049281295 -0.010655931 -0.16642956 -0.058822248 0.16320834
-0.042474724 -0.1073196 0.1490609 -0.115500554 0.2003782 -0.058294505 0.04672286 0.14821818
0.10144968 0.04153006 -0.07384771 0.053993024 -0.020433977 -0.039915204 -0.13720775 0.11163293
0.15098861 -0.1381204 0.13329595 -0.14774446 0.104672365 -0.15372862 -0.024497373 0.10632749
-0.036303293 -0.051487423 -0.07666196 0.1248294 -0.123284824 0.09078638 0.19683054 0.104566135
-0.011463342 0.16152333 0.114264034 0.016063 0.11994112 -0.091172114 0.09191001 -0.037018888
0.10245855 -0.06754257 -0.09120323 -0.12068188 0.18657096 -0.05282981 -0.026252043 0.0580672
0.23501413 -0.116387695 -0.0045350296 0.17179951 -0.03655144 0.12412852 0.12346199 -0.096317135
0.17988864 0.119361795 0.13016303 -0.119648695 0.041503426 -0.077236615 0.059915878 0.13646269
-0.02297161 0.19017626 -0.04805272 -8.7969755e-05 0.14263602 0.12480689 -0.099307254 0.1973663
-0.00036146786 -0.049085833 0.08760356 0.071281515 0.12968794 -0.107792184 0.06577365 0.14977154
-0.014376351 0.00549333 -0.109874405 0.16880603 -0.16574743 0.06966092 0.03954464 -0.1704614
-0.15645264 0.0019006635 -0.01983351 0.045845076 -0.06983228 -0.089194626 -0.18306099 -0.042792812
-0.16900697 0.16673423 -0.078077935 0.027716832 -0.17627583 0.121793345 0.21441124 0.037866615
-0.11747285 -0.04770913 -0.188776 0.100733064 -0.125641 0.10144122 0.046099957 -0.21568297
00000000: 1381 833d 7305 463e fcbf b43d df93 f63d
00000010: e5d4 43be 6857 17be 35ab 493d 6f82 113e
00000020: 80d0 cebd f5e4 233e d8c4 c03d eb7e 953d
00000030: 2210 d83d 9819 653d 499c 413e 62cb 0fbe
00000040: a0ef 1ebe c070 a3bc 587e 13be 380b 193e
00000050: 3aa3 0c3e 6203 6ebc cc96 f6bd a426 d7bd
00000060: 8bb5 193d 74ac e33d dd2b 083e 11b4 01be
00000070: 2377 363d 71e6 883d a21e 183e a7d6 06be
00000080: 6fb5 233d e5b2 1d3e d0d6 8abd 5e16 b1bd
00000090: 03be f83d 7a69 303e 2d60 0ebd 3a9d 013e
000000a0: 9c27 073d 8b56 1d3e f342 47bd b404 17be
000000b0: 33d3 0fbe 190f cc3d 70c7 1e3e 7583 5f3e
000000c0: a0a3 ffbd a78b 3fbd ec09 053e c030 87bd
000000d0: d7d6 f2bd 7915 613e 7c9c 843d 23aa c93d
000000e0: 681c 2cbe 50f9 873d c60c 70bd 1eb7 98bc
000000f0: 60e3 fcbb 38dd 0cbe 09f4 d9bd 0483 2d3e
00000100: f56d 143e a273 c6bd c196 953c 4e37 393e
00000110: ae83 8dbd 56f7 acbd 6806 793d dbd3 13be
00000120: 68c6 56bd 2055 bcbd e59e c93d 10f5 533d
00000130: 5d96 1ebd 6cf1 19bd 34ff b1ba 43d9 07be
00000140: 48e2 743d 5bf2 fa3d 5781 0dbd 7dc4 afbd
00000150: 5ff5 93bc 437d 173c e68f 3f3d 5def 443e
00000160: a84f 0c3d 7dc6 6dbd 0058 833d ace8 9cbd
00000170: b970 1abe f7e4 473e c9e2 07be e09a 81bc
00000180: 70d8 003e a671 963d b80a 913d 82b0 d93c
00000190: 4315 27bc 2ec4 54be ab93 943d 2ea9 e03d
000001a0: d17d f63c 1f10 3d3e d829 a3bd d8b5 da3d
000001b0: a5d9 c3bd 2475 fabd 331a 40be 8f88 13bd
000001c0: 73ff 3dbc 94a7 8b3d fd3e 463e 20e7 193e
000001d0: 4f1b 243d 3cdc d8bc b7ed 323a 4ea4 c3bd
000001e0: 5d7d f13c 62b6 2d3e 8be1 8ebd 4638 183e
000001f0: 2597 71bd 44f9 24be 6395 e5bd e7ab 993b
00000200: acd4 c4bd 4738 cabd d951 153e 7c47 e53d
00000210: 1bcf 143e fd99 133e 94ae 06be b561 613d
00000220: a3a0 09be e723 503e ab7b 083b 2fdb 493d
00000230: 3796 2ebc 836c 2abe 99ef 70bd 1620 273e
00000240: faf9 2dbd 61ca dbbd 6ca3 183e 8e8b ecbd
00000250: f12f 4d3e 38c6 6ebd 7860 3f3d 82c6 173e
00000260: dac4 cf3d 6d1b 2a3d 783d 97bd ca27 5d3d
00000270: 2865 a7bc 207e 23bd 3080 0cbe ce9f e43d
00000280: c29c 1a3e 6f6f 0dbe bc7e 083e 534a 17be
00000290: 775e d63d 096b 1dbe b7ae c8bc 3ac2 d93d
000002a0: c3b2 14bd 7ae4 52bd f200 9dbd 8ea6 ff3d
000002b0: c17c fcbd 36ee b93d f28d 493e c526 d63d
000002c0: bed0 3bbc 5f66 253e 4303 ea3d 8d96 833c
000002d0: b1a3 f53d 72b8 babd 513b bc3d 1ea1 17bd
000002e0: cad5 d13d c253 8abd c2c8 babd 1028 f7bd
000002f0: 750c 3f3e 1264 58bd 860e d7bc dfd7 6d3d
00000300: 8ba7 703e ac5c eebd 969a 94bb 36ec 2f3e
00000310: f6b6 15bd 1837 fe3d a4d9 fc3d eb41 c5bd
00000320: ba34 383e f573 f43d 7549 053e 600a f5bd
00000330: 7fff 293d 3b2e 9ebd 5a6a 753d e0bc 0b3e
00000340: f52e bcbc 91bd 423e eed2 44bd 677c b8b8
00000350: 2d0f 123e c19a ff3d 9a61 cbbd 641a 4a3e
00000360: 6583 bdb9 3a0e 49bd 7f69 b33d 0bfc 913d
00000370: eacc 043e 26c2 dcbd 56b4 863d b65d 193e
00000380: c98a 6bbc 6401 b43b d505 e1bd 7ddb 2c3e
00000390: b2b9 29be 62aa 8e3d 8ff9 213d 6f8d 2ebe
000003a0: 1f35 20be af1f f93a e379 a2bc 0cc8 3b3d
000003b0: 3a04 8fbd acab b6bd 5774 3bbe 8447 2fbd
000003c0: 2a10 2dbe 61bc 2a3e 53e7 9fbd 690e e33c
000003d0: a781 34be ca6e f93d 9f8e 5b3e 061a 1b3d
000003e0: 9b95 f0bd a66a 43bd 7f4e 41be 234d ce3d
000003f0: 09a8 00be 6ac0 cf3d 4fd3 3c3d ffdb 5cbe

dnn/logits/MatMul f4 [1, 64]
0.32787174 0.29153508 0.063847296 0.40653166 0.15987962 0.17189322 0.29246977 -0.122434326
-0.16990419 0.35090667 -0.12040462 0.35612202 -0.19375354 -0.10636792 -0.24258536 -0.061347585
-0.04699376 -0.334081 -0.2316019 -0.09277211 -0.37377325 -0.20631431 -0.24850631 0.052617263
0.44519773 -0.33324355 -0.09830662 0.039136417 -0.048713703 -0.017279953 -0.18772034 -0.3360946
0.25697488 0.30095568 -0.19695239 -0.22183219 0.12445925 0.117359735 0.06610035 -0.33218905
-0.13019553 0.26318946 0.11687692 0.46195102 0.22521234 0.20381118 -0.07746647 0.29590243
0.24924622 0.2874239 0.081820436 0.013460625 -0.15967387 0.10634781 0.16255207 0.35501948
-0.24721321 -0.39492962 -2.1029673e-06 0.10106516 -0.09492499 -0.3788193 0.38199526 0.09129654
00000000: cede a73e 1644 953e 5fc2 823d eb24 d03e
00000010: 7cb7 233e c704 303e 99be 953e d9be fabd
00000020: 5dfb 2dbe 0aaa b33e b396 f6bd a055 b63e
00000030: 5467 46be 6dd7 d9bd 4c68 78be 9b47 7bbd
00000040: 877c 40bd aa0c abbe 0c29 6dbe 4eff bdbd
00000050: 355f bfbe 0f44 53be 7078 7ebe 3385 573d
00000060: f5f0 e33e e69e aabe fb54 c9bd 824d 203d
00000070: 0588 47bd b08e 8dbc c339 40be 9714 acbe
00000080: 3692 833e dd16 9a3e e3ad 49be fa27 63be
00000090: 7ee4 fe3d 4d5a f03d 9f5f 873d af14 aabe
000000a0: fa51 05be c5c0 863e 2b5d ef3d d884 ec3e
000000b0: 109e 663e e1b3 503e bea6 9ebd 8680 973e
000000c0: 673a 7f3e 3a29 933e 7991 a73d f489 5c3c
000000d0: 8c81 23be e1cc d93d 0d74 263e 1dc5 b53e
000000e0: 7625 7dbe 3734 cabe b420 0db6 40fb ce3d
000000f0: 0868 c2bd 9af4 c1be e294 c33e aef9 ba3d
