Travelling App Login Page/.dart_tool/chrome-device/Default/optimization_guide_prediction_model_downloads/1836d1eb-7616-40f4-b212-9d7f9705210a/model.tflite (tflite, 409956 bytes, 166 tensors)

context_transformer_0/bottleneck_input/norm/add f4 [32]
00000000: bca2 28bd f081 b0bd 6685 893e d777 193c
00000010: c38a 8a3c aaba b43d 4625 063d 10e3 ce3d
00000020: 241b e3bc 3c6d d2bd a4d6 de3c 5729 e0bd
00000030: b9a4 b9bd 705e 12bd 9079 2f3d b0ac 7ebd
00000040: f174 30bb e641 c1bb 5b34 9a3b 3e55 eb3c
00000050: 9813 a8bd 659d 8f3c bec6 783d 568c 4fbe
00000060: 893c 8f3d 3fe9 97bd d893 573d 42b3 513d
00000070: 4efd ce3d a084 283d 0a5c 09bd 24b1 09be
-0.04117082 -0.086185336 0.26859587 0.009366951 0.01691187 0.08824666 0.03275039 0.101019025
-0.027722903 -0.10274741 0.027201958 -0.10945385 -0.090646215 -0.035734594 0.04284054 -0.062176406
-0.0026925171 -0.0058977483 0.0047059483 0.02872717 -0.08206862 0.017531106 0.06073641 -0.20268378
0.06993968 -0.07417535 0.05263123 0.051196344 0.10106908 0.041142106 -0.03353504 -0.1344648

context_transformer_1/bottleneck_input/norm/add f4 [32]
00000000: 153a 2c3e 448b 09be f0c8 19be aa3b 1f3e
00000010: 3436 54be 7fbe 8d3e 4527 7e3d d09e 39bc
00000020: ae88 053d 02e7 a1bd e0f9 513e ae3a b0bd
00000030: b255 b9bd 42e3 97bd 17f1 0bbe 2a18 5dbd
00000040: 863b 2d3c 89eb fcbc 6239 85bd 66ff 2d3d
00000050: 808d a2b9 f895 253d 067a 053d eeaa ab3d
00000060: b6a9 0bbe 494a 8a3d fbc5 27be 93d3 473e
00000070: 0cbe 053e cce7 d6bd fef2 aebd d6c9 fbbd
0.16819032 -0.13432032 -0.15018058 0.15550104 -0.20723802 0.276844 0.06204917 -0.011329368
0.03260105 -0.07905389 0.20505476 -0.08604942 -0.09049548 -0.07416393 -0.13666187 -0.053978123
0.0105732735 -0.03087403 -0.065050855 0.042479895 -0.00031004474 0.040426224 0.032587074 0.083822116
-0.13638958 0.0675245 -0.16384117 0.19514303 0.13060778 -0.104934305 -0.08542441 -0.122943565

mention_transformer_0/bottleneck_input/norm/add f4 [32]
00000000: fe3c 0e3e 2abd 65bd eef7 2a3c fccc 233e
00000010: bb78 453d 24dd 333d 28d7 4ebe 66e1 ff3c
00000020: 4cb9 85bc 293c 8cbe 2e16 513e 544a d1ba
00000030: 005a 4cb9 aec1 f2bd c16c 4a3c 023d c4bd
00000040: 95bd e7bd 182f af3d cbe7 39bd 2c25 8b3d
00000050: 5d84 8d3d f8b3 0f3d 5eab 1abd 0474 13bd
00000060: 80f8 08bd e670 8c3c d984 83be d8ed 633d
00000070: f260 6a3d 4731 fe3c 927f a43a 82a5 7b3e
0.13890454 -0.056088604 0.010435088 0.15996164 0.04821084 0.043912068 -0.20199263 0.031235408
-0.016323708 -0.2738965 0.20418617 -0.0015967586 -0.00019488484 -0.11853348 0.0123550305 -0.09581949
-0.11315457 0.08553904 -0.04538707 0.06794199 0.06910012 0.03508374 -0.037761085 -0.035999313
-0.033440113 0.017143678 -0.25687292 0.055646747 0.05722136 0.031029357 0.0012550226 0.24574855

mention_transformer_1/bottleneck_input/norm/add f4 [32]
00000000: b4db 803d 286a 843e d8b5 1d3e 5d15 9cbd
00000010: f83b 0fbc a3e6 08bd 94b6 27be 6b62 ca3d
00000020: e31f 9ebd b411 90bd 9774 cdbe bd4e 13be
00000030: 1da8 0abe 190e a6be 1305 c9be 707f ce3b
00000040: b6c5 ae3d 1646 3abe 72a2 e9bd 519a eabd
00000050: 2379 66be c15b 223e 65ed 653d cbe6 663e
00000060: 6e0c ea3c fbaf 393e fced 093c 5b86 9a3d
00000070: cae1 503e 12fc 06be fd9a 343e 61bf 41bd
0.06291905 0.2586224 0.15401399 -0.07621262 -0.008742325 -0.033423077 -0.16378242 0.09882053
-0.07720926 -0.070346266 -0.40128013 -0.14385505 -0.13540693 -0.3243263 -0.39261684 0.006301813
0.08533804 -0.18190798 -0.11407937 -0.11455215 -0.22507147 0.15855314 0.0561346 0.22548978
0.02857038 0.18133537 0.008418556 0.075451575 0.20398632 -0.13182095 0.17637248 -0.047301654

context_transformer_0/attention/value/add;context_transformer_0/attention/value/einsum/Einsum;context_transformer_0/attention/value/add/ReadVariableOp/resource f4 [32]
00000000: 7f11 3cbd 5071 c23c 06d5 ad3d cdc3 cd3c
00000010: c1ec 2fbc fc93 6e3d dcae 313c cf73 f4bd
00000020: 948f b93a 89dd cdbc 50ce 3f3c 7e69 cfbc
00000030: b136 1e3d d6fe fa3c 55f0 4a3c c292 6abd
00000040: 8d83 613c e2ad 2bbd a85e 803c eb3c 8a3d
00000050: 841d c6bb b85c eb3c bdd9 0abd d6f4 813d
00000060: 6191 96bd 3235 c93b 52ff af3c fcb3 f0bd
00000070: 7250 02bc bf21 b0bd c378 69bc 0f87 c83d
-0.045915123 0.023735672 0.084878966 0.02511778 -0.010737599 0.058246598 0.010844912 -0.11936151
0.001415717 -0.02513005 0.011706904 -0.025318857 0.038626377 0.030639093 0.012386401 -0.057268865
0.013764274 -0.041913874 0.015670136 0.067499004 -0.006045999 0.028730735 -0.033899058 0.06345527
-0.073519476 0.0061403746 0.02148405 -0.11753079 -0.00795375 -0.086001866 -0.014249983 0.097913854

context_transformer_0/bottleneck_input/norm/mul f4 [32, 32]
00000000: 4274 8dbe 29b4 0ebe 3d0a 733e bd97 f8bc
00000010: 4e3a 883e 97a0 54be 7c5c b1be d77c 753e
00000020: 6d53 953e b813 043c dcaf 7fbe 8c2a 763d
00000030: c9f1 143e e730 ef3d e39b 253e be3a 5fbc
00000040: b02b c93d c654 34be fa11 a1be c689 afbe
00000050: 4bf3 803d a45f 60bc d915 953e 8729 ad3d
00000060: ad90 8bbe 0125 013e f338 bb3e f8eb 123e
00000070: 8820 d7bd 8fc7 d6be 4fa8 fd3d cc79 17bc
00000080: 46fe 09bd 6efe 133e 9242 e0be 7a36 613e
00000090: 34f6 e23c 8119 e73d 3fe7 3a3f 91d6 59be
000000a0: 9489 fabe fc29 893d 631b 653e 90ce 863d
000000b0: 8f2d c8be 28c8 ed3e b277 0ebf 0bb1 243f
000000c0: c1ba a3bd 5f27 87be 5973 04be 6592 a8be
000000d0: 98db 12be b3b4 4dbe ace8 0b3e 7156 0e3f
000000e0: f8f5 683c 5ea0 093e 36fc be3c b852 26bd
000000f0: 18cf 4abe fd94 473e 2440 de3e 3840 8fbe
00000100: 4264 08bf c9c2 b13d 8442 813e 1af9 a3be
00000110: 54ab de3e 74bb a93e 8ded e13d bf90 a43e
00000120: 90db 853e 4e3f 213f 8189 96be dee6 65be
00000130: a35c fe3c dea5 093f 41e1 1eba 12e9 15bf
00000140: 5d26 12bd bdc4 763d fefe a63e c7e4 843e
00000150: 94d7 543e 6061 8e3e 51fc 1c3e 0f39 583d
00000160: c96b a2be cd97 093d 6e3d 233c 9f8d df3d
00000170: a70b 233e dfd2 8abe ab32 6d3e edd7 9e3e
00000180: ed0d 1dbe b71d 2d3e 6728 3e3e 5cb0 243d
00000190: 8627 43be e90f 053e 9a11 5dbe 359b b0bd
000001a0: e586 073e e92d cf3e c129 423d e631 983d
000001b0: 0a7d 77be 05bd df3d c7a7 b63e a8c2 c3be
000001c0: 984f e9bc ee9c 023d 1b6f 19bc a733 083e
000001d0: 49f9 063f 1c84 f63b d32a 35bd fbcc 7ebe
000001e0: 67df fcbb 7566 913e 4e35 143e 37ed 723e
000001f0: f621 783e 9002 d1bd 8841 84bd ef7b 8c3e
00000200: dbe1 7bbd 1643 e53c 9e1a 9ebd aec2 52bd
00000210: 6e3a aa3d 4189 1b3e cf81 9cbd d652 45be
00000220: d962 943d f121 d4bd 9d8a c23d 13b6 7bbe
00000230: c878 0b3d 76f5 483e 2391 373e ce5f 38be
00000240: d326 653d 1ad2 06be abcc 95be 33d5 193e
00000250: d6ad e9bd 1bcf d8bd 6ae5 b4bd 1c01 ae3d
00000260: e499 51be 88c9 61be 0936 153e a328 a73d
00000270: 8884 be3d b60a 333e a750 84bd 663a 8fbd
00000280: d225 50bd 7fea 1c3d dda1 51be f525 15bc
00000290: 051a cb3d 9e43 7a3e fd04 19bc 0407 46be
000002a0: e1f6 db3c 9e87 1d3e 1325 833c cfc6 19bd
000002b0: 2f98 343d b337 aa3e 04a3 3e3e de92 fd3d
000002c0: 3a8a 4a3d b22c 38be a60b bbbe f361 6f3e
000002d0: 3ffb 5fbe 753a 89be 031b 7bbe c0dd 803d
000002e0: b406 c6bd 8a0e a0bc 509b 61be af9a 3d3c
000002f0: 80b8 1a3e 408c 073d 1374 34bd 502c b1be
00000300: 2c7e 0b3e e896 e83e 40ff e5bc 2363 ce3e
00000310: 00b9 943e b07d 4f3d 1554 2a3d 0046 1d3f
00000320: 839d d43e 8754 fc3d 94f0 3e3e 2fc0 91be
00000330: 6d71 bc3e 40ba b1bd 8054 4fbe d7f9 7c3f
00000340: 8597 9b3e e29d ea3d 3ef6 f2be 325c 273d
00000350: 0f8e 5d3c 72a7 6abe b15a ef3d 584a a73e
00000360: 89a1 4fbe 8243 b53e cae4 203d dbad 933e
00000370: 2c13 a93c c71c 7f3e 642f e43d 41c0 d7be
00000380: 9365 0fbe 91a5 75be 2a82 e6be 7612 e93d
00000390: 3ecb 23be 24b6 13bf e45d 9e3e 571a 04be
000003a0: 9b4d 01be badc a53e f595 1b3e 5ad8 26bd
000003b0: b979 18bd 0f8e 52bd b193 0b3f 8f4f 08be
000003c0: c219 7a3e bd72 c33e 9946 ffbc 479f 683e
000003d0: 6fa1 0ebc 683e 553f febb 923e c474 64bd
000003e0: 79c3 fdbe 7686 923d 85f8 233f af7f fd3d
000003f0: 5709 22bf 966d d23e 1427 cd3e ccdf 9d3e
-0.2762776 -0.13935913 0.23734374 -0.030345792 0.26606983 -0.20764385 -0.34640872 0.23973404
0.2916521 0.008061342 -0.24969429 0.06009917 0.14545359 0.11679249 0.16172747 -0.013624845
0.09822786 -0.17610464 -0.31459028 -0.342848 0.062964045 -0.0136946775 0.2911823 0.08455186
-0.27258816 0.12611772 0.36566886 0.14347827 -0.10504252 -0.41949126 0.12385618 -0.009245347
-0.03368976 0.14452526 -0.4380079 0.21993437 0.02770529 0.11284161 0.73009104 -0.21273257
-0.4893309 0.06697461 0.22373728 0.065823674 -0.39097258 0.4644177 -0.5565139 0.64332646
-0.07994605 -0.26397225 -0.12934627 -0.3292419 -0.14341581 -0.20088463 0.13662976 0.5560065
0.0142188 0.13440081 0.023313623 -0.04060623 -0.19805562 0.19490428 0.4340831 -0.27978683
-0.5327798 0.086797304 0.2524606 -0.32025987 0.43490088 0.33150828 0.11031637 0.32141683
0.26144075 0.6298722 -0.29401782 -0.2245135 0.031050032 0.5376872 -0.0006060787 -0.5855876
-0.035681117 0.060246218 0.3261642 0.25955793 0.20785362 0.27808666 0.15330626 0.05278879
-0.3172286 0.033592034 0.009963376 0.10915684 0.15922414 -0.27114007 0.2316386 0.31024113
-0.15337344 0.16905867 0.185701 0.040207252 -0.19058046 0.1299435 -0.21588746 -0.086233534
0.13235052 0.40464714 0.0474031 0.07431392 -0.24168792 0.109247245 0.3567488 -0.38234448
-0.028480336 0.03188794 -0.0093648685 0.13300954 0.5272413 0.007523073 -0.044230293 -0.24882881
-0.0077170613 0.2839848 0.14473459 0.23723303 0.24231705 -0.10205567 -0.064578116 0.27438304
-0.06149469 0.02798609 -0.077199206 -0.051455192 0.08311926 0.15189077 -0.076419465 -0.1926988
0.07245416 -0.10358036 0.09499095 -0.24581175 0.034050733 0.19624886 0.17926459 -0.18005297
0.05594523 -0.13166085 -0.29257712 0.15022735 -0.1141011 -0.10586377 -0.0883282 0.08496305
-0.20468861 -0.22049534 0.14571394 0.08162048 0.09302622 0.17484555 -0.06460696 -0.069935605
-0.05081732 0.03830957 -0.20471902 -0.009103288 0.09917072 0.24439856 -0.009339568 -0.19338614
0.02685112 0.15383765 0.01600889 -0.037543114 0.044090446 0.3324562 0.18616873 0.12381528
0.04944823 -0.179858 -0.36532325 0.23377208 -0.21873187 -0.26802412 -0.24522023 0.062922955
-0.09669247 -0.019538183 -0.22031903 0.011572524 0.15109444 0.033092737 -0.04405601 -0.3460412
0.1362235 0.45427632 -0.028075814 0.4031001 0.29047394 0.050656974 0.041584093 0.61434937
0.41526422 0.1232081 0.18646461 -0.28466937 0.36805287 -0.086781025 -0.20247078 0.98818725
0.30389038 0.11455895 -0.47453493 0.04085941 0.013522639 -0.22915438 0.1168722 0.32673907
-0.20276465 0.35403067 0.03928069 0.2884358 0.020639025 0.24913321 0.111418515 -0.42138866
-0.14003591 -0.2398894 -0.45021182 0.11380474 -0.159955 -0.576998 0.30931008 -0.12900673
-0.1262726 0.32394964 0.15193923 -0.040733673 -0.03722546 -0.05140501 0.54522234 -0.13311599
0.24423888 0.38173476 -0.031161593 0.2271701 -0.008705481 0.8329835 0.28659052 -0.05577542
-0.49563196 0.07154553 0.64051086 0.12377869 -0.632955 0.41099232 0.40068877 0.30834806

context_transformer_0/kq_shared_bottleneck/norm/mul;context_transformer_0/kq_shared_bottleneck/norm/add;context_transformer_0/attention/key/einsum/Einsum;context_transformer_0/attention/key/add;context_transformer_0/attention/value/einsum/Einsum;context_transformer_0/attention/key/add/ReadVariableOp/resource f4 [32]
00000000: 852d 843c 1648 1abe 5621 12be 635a 5c3e
00000010: 3035 35bd f6aa 393d 1645 0cbb 48a3 d7bc
00000020: 47ea 08bd 0c73 6cbe 1231 76be a822 f83d
00000030: 5bfa e13c af8d c2bd 9c0d 3c3e ebb0 b1bd
00000040: b231 16bd 0e41 803e d9fe fa3c 48ec e7ba
00000050: 25a6 243d bc46 0b3d 20f3 4b3c f097 83bc
00000060: d7e5 75bd 046a c0bd 1ea6 9ebd 6fb3 53be
00000070: 8dbf 813e a13a 5bbe ca4e 813e 20c1 12be
0.016134987 -0.15066561 -0.14270529 0.21518855 -0.044240177 0.045329057 -0.0021403483 -0.026322976
-0.03342655 -0.23090762 -0.24042156 0.12115985 0.0275852 -0.0949968 0.18364567 -0.086763225
-0.036668487 0.25049633 0.030639099 -0.0017694319 0.04019751 0.034003004 0.012448102 -0.01606366
-0.060033645 -0.09395221 -0.07746528 -0.20673917 0.25341454 -0.21409084 0.25255424 -0.14331484

context_transformer_0/kq_shared_bottleneck/norm/mul;context_transformer_0/kq_shared_bottleneck/norm/add;context_transformer_0/attention/key/einsum/Einsum;context_transformer_0/attention/key/add;context_transformer_0/attention/value/einsum/Einsum;context_transformer_0/attention/key/add/ReadVariableOp/resource1 f4 [32, 32]
00000000: b9a9 b1bd 0f6f d43e 9e7e bd3e aab6 b9be
00000010: d994 84be 9251 3dbc 1d62 92be 1fec a03e
00000020: da1d c53d 10b2 d3bd c3aa 743d fce0 8c3e
00000030: a7ed 023e e84b 033e a0f2 373f c07c 5c3d
00000040: 1ce5 c23d 8aad c83e 1c42 2c3e c0d4 11bf
00000050: eada a93d 97df 8cbe bfb1 a13d b617 96bd
00000060: a5e6 91be c468 82be 6f13 d53b d18c 83be
00000070: 45e1 4cbd 219b c03c 0acc f43c d0e0 c7bd
00000080: 8927 06bf 14f1 bb3e 36ca 86be 5c51 a1be
00000090: 9113 3fbe 1c10 363f 57e5 753e 5a32 553e
000000a0: 58c2 8ebd 6d68 983d f909 73be 53b4 e43d
000000b0: f3ce ef3e d242 a9bd c0e3 bbbe 7f97 993d
000000c0: a20e 96bc 1437 923c 949e e3bd d2e7 4fbd
000000d0: 174f 54bd 1d9a f3bd 4602 3abe c6af f1bd
000000e0: 616f afbc 3015 b13e ebf0 2d3e 854f 65be
000000f0: 3607 423f c45f 2f3e 5d90 a7bd d705 f3bd
00000100: 3e89 b4bd b65a 3e3d a6d3 23bf bd1a 15be
00000110: 4520 abbe 024a 08bd 6e7e 063e 296a b6be
00000120: e2d4 ba3e 7e74 5ebe 3b57 cebd 9025 8b3e
00000130: 3923 893e 7a02 e3bc 333b 143f 98db e03c
00000140: 082e 543f 3cfe 9fbc 4ed5 b6bd d768 2dbf
00000150: a176 3cbe a351 873e 2080 10be f72f b4be
00000160: e8a6 96be 2995 833e 4b69 913d 4a79 71be
00000170: f3ea 8f3d e75f 223d 231f a63c 0494 d0be
00000180: a14d 59be 2fe5 82be ab6e 343e fbea 79be
00000190: 991f b3bd 0efd 893e d6b2 86be 6806 2a3f
000001a0: 7eb8 d8be 36e0 3bbe b877 273e bc1e 93be
000001b0: 2294 b5be 1f10 6e3d 57f4 43bf e407 babd
000001c0: 759b 6abf 8f83 c03d bb03 073e 8f13 4c3f
000001d0: be5a 92bd 34c9 c4be 3753 183e fb78 dd3d
000001e0: 640c 383e 8492 c3be 4c4e 1cbd ff16 733e
000001f0: 5fa0 8abe 23fa 853a 185b b63c 454e 083e
00000200: 81b7 30be e12e f13d f744 753f 9315 4bbe
00000210: 0c8e cc3d 67be 9f3e ffaa 8bbe 4a93 173f
00000220: 7563 dbbd 6d55 873e e5d5 3a3d 3eb6 8cbe
00000230: f08d 163e 4bb6 683e 86e3 fdbe 68c0 80bb
00000240: 8a67 49bf d0e2 053e 9035 4fbd 21e9 9d3e
00000250: 3ef0 803e aee1 8ebe 4bf0 aebd f841 9a3e
00000260: bd91 713e 7026 873d e209 48bd cb5c 373e
00000270: 529d 633e ead9 973c 46b5 46bd f8a5 e9bb
00000280: ab2a 30bc 43e4 913e 56ec 3d3d 9731 d4bd
00000290: 5010 5cbe 4664 cabd fb20 a1be 3c8f 833e
000002a0: 392f dabc c96b 38be e749 2c3d 4c44 8b3e
000002b0: 5cc7 0abe ff04 b33d 78b7 193f 4ad2 d23d
000002c0: 927f 923d ccdf c93e 8646 693e bcc1 c4be
000002d0: 67e1 b03a dafe aabe 0197 433e 8f10 d5bd
000002e0: ce7e 45be c302 cbbe 92e8 123d e8c1 3ebe
000002f0: d853 dfbd cf03 c0bc a99c 0e3c 744c f43b
00000300: 2ff0 86be fafe 053f 37b0 96be 6ac2 e03e
00000310: bd53 4c3f b7a8 bc3e 6815 823e d92a 4cbe
00000320: d443 3dbe a4d1 0e3f 8d3e 12bd 5cfe e73d
00000330: a144 733e 4d00 8cbd b18f 99be 012d 83bd
00000340: e230 1fbe ee3e 3abd ec1c bd3d 4ceb ad3e
00000350: c5bc ee3d b382 dbbe e7a0 6a3e 9459 e13d
00000360: 2fc1 bb3e 9000 82bd 1cff 183e 6766 30be
00000370: e713 843f 42a4 c43d b507 afbc b453 e03e
00000380: aaf2 a3be 34ad bdbe ec7b 0f3b d16e cebe
00000390: a586 5abe 0f82 053f ca85 2d3e ac57 b83e
000003a0: 25bb 473e 6599 43be 5e77 84bc 0812 15be
000003b0: e3b0 6d3e aea9 1a3d 228c 05bf 8711 fcbd
000003c0: d896 16bf 87d9 57be 8add 34be 02d6 6c3e
000003d0: c39a f93c c575 4d3d a75c 6fbe 61f3 813c
000003e0: aa2c c6bd fa7e 753e 6b7f 303d df18 f23d
000003f0: 4373 b2bd b09f c53d e106 263c 3d37 c1be
-0.0867495 0.4149098 0.37010664 -0.36272174 -0.25894812 -0.011555092 -0.2859048 0.31430146
0.09624834 -0.10336697 0.059733164 0.275154 0.1278597 0.12821925 0.7185459 0.05382991
0.095163554 0.391949 0.16822094 -0.56965256 0.08293708 -0.27514336 0.078952305 -0.07328741
-0.2849628 -0.25470555 0.006502561 -0.25693372 -0.05001952 0.023511471 0.02988245 -0.097596765
-0.52404076 0.36707366 -0.2632615 -0.31507385 -0.18659808 0.7111833 0.24013267 0.20819989
-0.06970662 0.07441793 -0.23734273 0.111672066 0.46837577 -0.08264698 -0.36697197 0.07499599
-0.018317524 0.017848529 -0.11114231 -0.05075819 -0.05183324 -0.11894629 -0.1816493 -0.11801104
-0.021415414 0.34586477 0.16986434 -0.22393616 0.75792253 0.17126375 -0.08181832 -0.11866348
-0.08815239 0.046473227 -0.63994825 -0.14560981 -0.33423057 -0.033273704 0.13134167 -0.3562787
0.36490542 -0.21724126 -0.10075232 0.27177095 0.26784685 -0.027711142 0.5790283 0.02744846
0.8288274 -0.019530408 -0.089274034 -0.677381 -0.18404628 0.2642947 -0.14111376 -0.35192844
-0.29424214 0.25699738 0.07100161 -0.23581424 0.07027235 0.03964224 0.020278519 -0.40737927
-0.2122102 -0.25565478 0.17620341 -0.24406044 -0.08746261 0.26950878 -0.26308316 0.66416025
-0.42328256 -0.18347248 0.16354263 -0.28734386 -0.3546458 0.058120843 -0.7654471 -0.09083536
-0.9164346 0.09400093 0.13185017 0.79717344 -0.07146214 -0.38434756 0.14875494 0.10814091
0.17973477 -0.3819772 -0.038160607 0.23739241 -0.27075478 0.0010221641 0.022260234 0.13311107
-0.17257501 0.117765196 0.95808357 -0.19832449 0.09988031 0.31199953 -0.27278897 0.5920912
-0.10712329 0.26432362 0.045614142 -0.2748279 0.14702582 0.22725789 -0.4958765 -0.0039291866
-0.78673613 0.13074803 -0.05058819 0.30841926 0.2518329 -0.27906555 -0.08541926 0.30128455
0.23590751 0.06599128 -0.04883755 0.17906491 0.22227982 0.018536527 -0.04851272 -0.0071303807
-0.01075236 0.28494462 0.046367966 -0.10361021 -0.21490598 -0.09882407 -0.31470475 0.25695217
-0.026633846 -0.18009867 0.042062666 0.27200544 -0.13552612 0.08741187 0.60045576 0.10294016
0.07153238 0.39428556 0.22780809 -0.38429058 0.001349491 -0.3339756 0.19100572 -0.10403549
-0.19286653 -0.39650545 0.035866328 -0.18628657 -0.10904664 -0.023439316 0.008704343 0.007455403
-0.2635512 0.5234219 -0.29431316 0.43898326 0.79815274 0.3684747 0.25406957 -0.1993822
-0.18482906 0.55788636 -0.035704184 0.11327812 0.23756649 -0.06835995 -0.2999244 -0.06405068
-0.15545991 -0.04547017 0.09234032 0.3396858 0.11657099 -0.42873153 0.22912942 0.11003414
0.36670825 -0.063477635 0.14941067 -0.17226563 1.0318574 0.09601642 -0.02136598 0.4381386
-0.32021075 -0.37046206 0.0021893932 -0.4031892 -0.21340425 0.5215158 0.16945568 0.36004388
0.19504984 -0.19101484 -0.0161702 -0.1455766 0.23212008 0.037759475 -0.5216695 -0.123080306
-0.5882392 -0.21079074 -0.17662635 0.23128513 0.030469304 0.050161142 -0.23375188 0.015863122
-0.09676488 0.23974219 0.043090265 0.1182115 -0.08713391 0.096495986 0.010133476 -0.37737456

context_transformer_0/kq_shared_bottleneck/norm/mul;context_transformer_0/kq_shared_bottleneck/norm/add;context_transformer_0/attention/query/einsum/Einsum;context_transformer_0/attention/query/add;context_transformer_0/attention/value/einsum/Einsum;context_transformer_0/attention/query/add/ReadVariableOp/resource;context_transformer_0/attention/Mul;context_transformer_0/attention/Mul/y f4 [32]
00000000: da1e 97bd bc64 ce3d cd5b 233d 02e7 13be
00000010: 4054 05be c7a4 71bd e5d4 5e3e 3bbb 7dbd
00000020: 538c f9bd bcb9 553d 9b6e 6dbe 41c8 1c3e
00000030: b543 853e bedb 14be 86fa db3d 64c4 87be
00000040: e86c ebbd 8f1f 093e a63a a23a dc59 fe3c
00000050: 4a19 5e3d 3f06 a43d 01b1 693d 3f86 a3bc
00000060: 625f 193e fec7 8ebe fbc5 61bb 1845 a33e
00000070: 0872 45bd a753 c13d 1fcd bfbe 5038 9b3d
-0.07378931 0.10077807 0.03988247 -0.14443591 -0.1302042 -0.058995035 0.217609 -0.061946135
-0.12184968 0.052179083 -0.23186724 0.15310766 0.2602822 -0.1453695 0.10741143 -0.26517022
-0.114953816 0.13390945 0.0012377098 0.031048708 0.054223336 0.08009004 0.05705357 -0.019961474
0.14977792 -0.27886957 -0.003445028 0.31888652 -0.04820445 0.094397835 -0.37461182 0.075791

context_transformer_0/kq_shared_bottleneck/norm/mul;context_transformer_0/kq_shared_bottleneck/norm/add;context_transformer_0/attention/query/einsum/Einsum;context_transformer_0/attention/query/add;context_transformer_0/attention/value/einsum/Einsum;context_transformer_0/attention/query/add/ReadVariableOp/resource;context_transformer_0/attention/Mul;context_transformer_0/attention/Mul/y1 f4 [32, 32]
00000000: db3a 7c3d 42b1 123e 5824 763e 8414 71bd
00000010: 543e 2cbd d4e0 73bd 05b2 31be 5a6a ed3d
00000020: c01a 883d 0c6f a93d a09a 003d 34c9 babd
00000030: 5de0 803c e38c a23d 49e5 3c3e c028 bb3c
00000040: 2a43 3fbd c321 c63d 13fe 9d3d 4d48 043d
00000050: 9b10 b43c 8e25 72bd a063 bd3c 01c8 bdbc
00000060: 35c5 25be 7774 103e e780 c8bd 4c58 21bd
00000070: f4a7 2f3c d1f0 a9bd 0686 f53c 043d ec3d
00000080: 4103 8bbd f741 493b 5ff0 0abe 3892 dcbc
00000090: d250 a0be 8a8c 8f3a b4c9 fa3d dd8a 9b3d
000000a0: 1cbc 7a3d 6b24 71be 8c79 dabc 2a78 163d
000000b0: 0ac6 d2bd 0141 93bd af19 3fbd b3d2 93bd
000000c0: 131b b83c e52e 333d b0d1 913d 646a 9c3d
000000d0: 7b3d aebd d216 8c3b 8685 383c 49ef cfbd
000000e0: b571 4bbe e3d3 a73d d8a0 353d c306 11be
000000f0: dde2 cabc e496 5f3d abd7 b03d fce8 9f3d
00000100: 6fae dd3d 5248 0cbb a325 a63d 3450 203d
00000110: b64f 01be 6af8 f3bd 0b4e a43c 2490 c0bc
00000120: abe1 3f3d da9e 8f3d 23d4 75bc 6c81 80be
00000130: 3f52 e7bc f5b7 8abd 2dff 48be e4da 15bc
00000140: 9b10 ad3d ac4e 753d 1250 413c c7ab d63d
00000150: 93ea d1bc 99cf 213e 53fe 4abd e3fb 0ebd
00000160: 3214 f0bd d601 c63e 53e2 e2bd 3449 d7bc
00000170: 9b50 c83d 8bdb 10bd d88a 283d db04 1f3d
00000180: 0de3 80be c1f0 043d 4b56 c6bd 3d9a 3fbe
00000190: eee5 273d 782f 383e 28fb 87bb e7f5 613e
000001a0: 546c ebbd c42e 42bc f632 14bd 247e 703e
000001b0: 0152 683d 4b61 d63d 99e0 db3d 2963 7a3d
000001c0: 4a83 7fbd de88 0dbe 7396 55bd a17c febc
000001d0: d179 e93c a685 55be 1b50 54bc af0a 823d
000001e0: a5ce c53c 170d 7cbe 9af1 dd3d 262a cd3c
000001f0: fe82 0cbd 29ab c83d 4fd9 b1bd 5c45 44bd
00000200: 0b1c fdbd db2b f43c fcf2 d7bc 87be 84bd
00000210: ca49 47be be4f de3d f1fa e3bb 4662 933d
00000220: d235 c13d 00a5 58be b48b 4dbc 1fe7 803e
00000230: c831 6c3d 0fef 073e 6c9a 803e fa06 09bc
00000240: b39b 38bd d3a6 a8bb 0d01 e53c 63a3 efbd
00000250: dc72 523c 310f 2fbe e90e e03c 2d5f a8bb
00000260: 6ba8 3e3d 4e2c 91be b50e 603d 7fcd cdbc
00000270: 5419 3fbe d6f5 d63c 421c 793b 562c 6bbd
00000280: f8ce f93b 461b 1b3e 7d37 323e c8e1 74bd
00000290: 2c7e b13d de01 6abd 2e64 20be d7d5 fc3d
000002a0: e8a4 05bc 6bde 0b3e 4466 843c a4b6 bcbd
000002b0: 895b ad3b 9196 223d d494 e83d 4561 203d
000002c0: 57f3 43bd 6c4b 813d 54b6 4c3d 9bd3 c23d
000002d0: 4927 c13c d179 c5bd 61f3 d43c 5ccf 123c
000002e0: fbb2 dfbd 26f2 c93d 69e0 93bd 06a3 b4bc
000002f0: 7abd 5b3d 7329 7ebd d7e1 ebbb 8359 0e3e
00000300: 442e c13d e524 313d 74a1 00be 70e4 cc3d
00000310: 93ec 0dbe 4caf 17bb 7d13 0b3e c785 1bbd
00000320: 7bdf 02be a98c 6abe b213 7b3c c745 da3d
00000330: 5e54 85be 4c76 07be b800 1d3d cfb9 48bd
00000340: 0aa4 06bd 44bd 093e aef0 5a3d 7150 8b3d
00000350: ed18 43bd 16b0 e0bd a7b0 6b3d fc65 32bd
00000360: a40b b3bd ed66 87be ad48 f83d 74b5 05be
00000370: e9da 803d 60ad 8a3d 2d46 7b3d 23f6 1a3e
00000380: 59a5 fdbd 0f94 9bbd 593c 02bd 80a5 2cbe
00000390: 81c2 80be 8570 473e 8aff b23d dcf4 033e
000003a0: ced4 da3c 0965 0abe 3f23 79bd 9cd2 173e
000003b0: b9c0 293d 88fb 803d ade9 4cbd a1fc cdbb
000003c0: dc0e 40bd 4af7 18be 7943 42bd 20bd a7bd
000003d0: 663b fb3c 5bfb 673d 1e58 52bd 9dd4 aebc
000003e0: 62d8 81bd a83d 4a3d dfb6 523c 877b a43c
000003f0: 5330 05be dd36 a23d 4bdb 423c 366c f0bd
0.061579566 0.14325431 0.24037302 -0.058857456 -0.04205163 -0.059540585 -0.17353065 0.115925506
0.06645727 0.08273134 0.031397462 -0.09120408 0.015731985 0.07937028 0.1844684 0.02284658
-0.046694912 0.09674408 0.077144764 0.032295514 0.021980574 -0.059117846 0.023118794 -0.023166658
-0.1618851 0.14106928 -0.09790211 -0.039390847 0.0107211955 -0.08297885 0.029971134 0.11535075
-0.0678773 0.0030709484 -0.13568257 -0.026925191 -0.3131166 0.0010951918 0.12245503 0.075948454
0.06121455 -0.23549049 -0.026669286 0.03673569 -0.10291679 -0.07190133 -0.046655353 -0.07217922
0.022473847 0.043745894 0.07120073 0.0763748 -0.0850782 0.0042751813 0.011262303 -0.10153062
-0.19867595 0.08194711 0.044342846 -0.14162736 -0.02476638 0.05458726 0.086348854 0.0780811
0.10824286 -0.002140541 0.081126474 0.039138988 -0.12628064 -0.119126156 0.020056745 -0.023506232
0.046846073 0.070127204 -0.015004191 -0.2509874 -0.02823746 -0.06773368 -0.19628592 -0.009146426
0.08450433 0.05988948 0.011798875 0.10481983 -0.025624549 0.15801848 -0.04955895 -0.034908187
-0.11722602 0.38673276 -0.11078324 -0.026280023 0.09780999 -0.035365622 0.041148037 0.03882299
-0.25173226 0.032456163 -0.09684428 -0.18711181 0.040990762 0.17986858 -0.004149813 0.2206646
-0.11495271 -0.01185197 -0.036181413 0.23485619 0.05671883 0.10467776 0.10736198 0.061129723
-0.062381066 -0.13821742 -0.052145433 -0.031065287 0.02850047 -0.20851764 -0.012958552 0.06349694
0.024146387 -0.24614368 0.108370975 0.025044512 -0.03430461 0.09798271 -0.086840264 -0.04791771
-0.123588644 0.029806068 -0.026360981 -0.06481653 -0.19461742 0.10855053 -0.006957405 0.071964785
0.094340935 -0.21156693 -0.012545515 0.2517633 0.057664663 0.13274787 0.25117815 -0.00836348
-0.04507036 -0.00514684 0.027954603 -0.117010854 0.012844767 -0.17095639 0.02735086 -0.005138299
0.046547335 -0.28354114 0.054701526 -0.025122402 -0.18662006 0.02624027 0.0038011228 -0.05741533
0.0076235496 0.15147123 0.1740398 -0.059785634 0.086666435 -0.057130687 -0.15663216 0.12345474
-0.0081569925 0.13659064 0.016162045 -0.092145234 0.005290453 0.039694373 0.11356512 0.039155263
-0.04783949 0.06313214 0.04997857 0.09513017 0.023578303 -0.09642375 0.025994958 0.008960571
-0.1092281 0.09860639 -0.07220537 -0.022050392 0.053647496 -0.062051248 -0.007198553 0.13901334
0.094326526 0.043248076 -0.1256159 0.100045085 -0.13859777 -0.0023145257 0.13581653 -0.037969377
-0.12780564 -0.2290522 0.01532452 0.1065784 -0.2604093 -0.1322872 0.038330764 -0.049005326
-0.032871284 0.13451105 0.053452186 0.06802452 -0.047631193 -0.10971086 0.057541516 -0.04355429
-0.08742455 -0.26445714 0.12123237 -0.130575 0.06291754 0.0677135 0.06134622 0.15132956
-0.12385053 -0.07596599 -0.031795833 -0.16860008 -0.25148395 0.19476517 0.087401465 0.12886375
0.026712801 -0.13515104 -0.06082463 0.14826435 0.04144356 0.06297976 -0.050027538 -0.006286219
-0.04688917 -0.14938083 -0.04742763 -0.081903696 0.030667972 0.056636196 -0.051353566 -0.021341616
-0.063401 0.049375206 0.012860983 0.020078434 -0.13006715 0.079206206 0.011893104 -0.117393896

context_transformer_0/ffn_layer_0/intermediate_dense/einsum/Einsum;context_transformer_0/ffn_layer_0/intermediate_dense/Relu;context_transformer_0/ffn_layer_0/intermediate_dense/add f4 [32]
00000000: ffbb a8bd 2da5 1bbe a567 61be ba91 f2bd
00000010: e976 5fbe 9ed3 21bd e80c 9dbe c3e8 2cbe
00000020: 4f62 efbd 9a8d 50bd 030a 96bd 569c f5bc
00000030: 5f45 8abe de38 bdbe c61a 71be 0a2c aebe
00000040: f954 58be bd10 20be 1231 6fbe 74ab 4ebe
00000050: 6efe efbe 9068 28be 749f 1bbe c09d abbe
00000060: 00fa 57be d3d6 a7be 08a6 0d3c a581 fdbd
00000070: ca74 51be 404d cfbe a545 f1be 5541 c63c
-0.082389824 -0.15199728 -0.22012194 -0.118442014 -0.21822704 -0.039508455 -0.3067391 -0.16885667
-0.11688673 -0.05091629 -0.07326128 -0.029981773 -0.2700605 -0.3695745 -0.2354537 -0.34017974
-0.21126164 -0.15631385 -0.23358563 -0.20182592 -0.46873802 -0.16446137 -0.15197545 -0.3351879
-0.21091461 -0.32781085 0.008645542 -0.12378243 -0.20454708 -0.40488625 -0.47123447 0.024201075

context_transformer_0/attention/norm/mul;context_transformer_0/attention/norm/add;context_transformer_0/ffn_layer_0/intermediate_dense/einsum/Einsum;context_transformer_0/ffn_layer_0/intermediate_dense/Relu;context_transformer_0/ffn_layer_0/intermediate_dense/add f4 [32, 32]
00000000: 79bb 8cbe 4ae2 ac3e ff3c d8bc c591 f3bd
00000010: f85b dabd 28ad 0dbd 5039 82bd 207e 74be
00000020: 0104 b53c 3114 413d 52e4 36bd a05f 173e
00000030: 46cc 62be fb30 ff3e 691c 643e 442f f53d
00000040: 4a9e 43be d866 3dbe 525e ffbd 7237 243e
00000050: 06e2 e3bc 6fe3 62be 2826 be3d efec db3d
00000060: 8047 b5be 174c 7c3e abd7 1abd 200c 45bc
00000070: 6da0 363d e12e a73d 4cf4 8a3d a1ef ad3d
00000080: 4d32 3e3e 6f17 46be b4da 36bd 95ab 24be
00000090: c94c ff3d 2fd5 f1bd 216b bb3d da4d 1bbf
000000a0: bc93 a2bd 2244 02be 3875 a73d 665d 95bc
000000b0: ae18 16be e711 a33e 2f36 2ebe 1b95 7dbe
000000c0: 2519 453e ca0f de3d f988 4bbe ab89 333e
000000d0: d13d 82be 7304 42be 00c5 753e f6b7 063e
000000e0: a8bd 7abe c855 a8be 3928 1d3e ed31 36be
000000f0: 41bd 0ebd d6d6 b43e 825d 013e 3f71 a7bc
00000100: 79f7 633c f550 39be fa0a ff3d 7d87 08bd
00000110: b1dc 98bd 6ef6 07be a5a4 e43d d85f 89be
00000120: fb80 a7be 08d4 ce3d 8040 13bf bfef 363e
00000130: 0db0 b23d f352 e73d c800 a7be ec9d 813a
00000140: 0d68 5bbc 1e1b 2d3e ccc9 3fbe 39b0 95be
00000150: e0f8 873e 1b49 9a3e c9ad 85be a244 b23e
00000160: 5cf0 823d ef31 783e fb6c d239 4d9d c1bd
00000170: 3dea 04bd cdf2 51bc 44fd a4bd 9392 dc3c
00000180: 4573 003e c508 d6be 4bbd 0bbf f65c a93e
00000190: 2f6c e93d 08b5 b0bd 45b9 0dbe f9fa 6cbc
000001a0: da2e 0dbd 6a95 38be d661 a3be 33ef 923d
000001b0: 1e0d 42be 9ad9 0b3e ac5d 9bbd 4b0a d6bd
000001c0: f68d b73d adcf 013e dcd1 d63e 94f1 353e
000001d0: 2a14 133d 4ae9 d33d 5062 cdbc eedf 843e
000001e0: a01b 85bd 41d7 9e3e bcd2 c9be 5b05 123d
000001f0: 2ea1 4b3e 6f36 503c f5e4 933e b416 6cbe
00000200: 4c3d 5b3d 7284 123e c073 5ebe 5c90 8f3c
00000210: df5f 93bd 2ac2 8ebd 2e13 3d3d fbd1 88bc
00000220: bdda 3e3d ab6c 11bc 8cc8 afbe 8a20 a23d
00000230: 0461 43bc ec29 123d 4ba4 b0bd a046 14bd
00000240: 02dd 1d3d 424c bc3d d53c 2f3d 1d4d 5dbe
00000250: e0f2 2e3e bd65 ba3b e7b7 04be b317 5f3d
00000260: 449e f93d 7114 91bc 6e52 623d 7a04 2abd
00000270: bbd5 88be eb57 49be c046 b53d 6593 0f3e
00000280: fa5d e4bd 8647 e33c 4778 cfbd f604 e73d
00000290: eec9 f7bd ff1d 2bbe 63fe 70bd 9d19 0c3e
000002a0: d122 2f3e 9b2f 103e bf1f 4fbe b04f 883e
000002b0: a4ce 733e 0fa3 153d 9691 d7be 2776 3b3d
000002c0: 1123 483e c858 83be 06b1 e7bc a03c 903b
000002d0: 102a f43d faf0 e23d 59d2 ec3d cbae e83d
000002e0: 84ea f4be ad1d afbd ec5a 5abd 9374 be3c
000002f0: 79ee f7bd 0589 b1bd ea5d ad3d e294 ddbd
00000300: 70e3 29be 9935 fcbe 8596 7dbe 6bc7 8bbe
00000310: 62cc a2bd 2d46 6fbd 6204 8bbe 7c21 e8be
00000320: 24ca c33c dab5 493e d11c ddbb 1982 dabc
00000330: 47ef 383e 3b91 92be 815a 64be c18f 6ebe
00000340: 8323 69be c96c 86be 06e6 403d 81c7 903d
00000350: a177 423e 61c4 93be 86f3 333e 2878 303e
00000360: e4ba ca3d 9701 35be 18d1 3c3e a3d8 93bd
00000370: 2363 b63d af57 38be b764 8bbd 4ebf a83d
00000380: 289c 253d dade e03d d64a 033e 2fa6 50bc
00000390: 75fe 55bd 89a0 1abe fbef 90be d7b3 bcbd
000003a0: c7f4 4e3e 612f c03d e872 ab3d 4162 7b3e
000003b0: ca0b 873e 02ec 74be 8800 723d fa27 43bc
000003c0: 7baf 85be f3c4 99be a84e dc3d 2c12 603e
000003d0: f429 84bd 3cc5 47be 5cb3 41be d799 a3bd
000003e0: e4d8 c4be 1314 c6bc b592 2f3c 010c 873d
000003f0: bd06 dbbd 26c1 28be 4952 c83e 70fa 723d
-0.2748678 0.33766395 -0.026396273 -0.11893038 -0.10662073 -0.034588963 -0.06358588 -0.23876238
0.022096636 0.047138397 -0.044651337 0.14782572 -0.22148237 0.49842057 0.22276463 0.11971906
-0.19103351 -0.18496263 -0.12469162 0.16036776 -0.027817737 -0.22157072 0.092846215 0.10738551
-0.35406113 0.24638401 -0.037803333 -0.012026817 0.044586588 0.08163238 0.06784877 0.08492971
0.18573876 -0.19344877 -0.044642165 -0.16081078 0.124658175 -0.1180824 0.091512926 -0.6066567
-0.07938334 -0.12721303 0.081766546 -0.018233012 -0.14657852 0.31849596 -0.17012857 -0.2476391
0.19247873 0.10842855 -0.1987647 0.17532985 -0.25437787 -0.1894701 0.24000931 0.13156113
-0.2448641 -0.32877946 0.15347375 -0.17792483 -0.034848455 0.35320157 0.12633327 -0.020439742
0.013913983 -0.18097289 0.124532655 -0.033332337 -0.074639685 -0.13277599 0.11164216 -0.26830935
-0.32715592 0.100990355 -0.57520294 0.17864893 0.08724985 0.11295118 -0.32617784 0.0009888983
-0.013391507 0.16904876 -0.18729323 -0.2923601 0.26557064 0.301339 -0.2610915 0.34817988
0.06393501 0.24237798 0.00040135518 -0.09453831 -0.03244995 -0.012814236 -0.08056119 0.02692536
0.12543972 -0.41803566 -0.54585713 0.33078736 0.113975875 -0.08628279 -0.13840206 -0.014464133
-0.03446851 -0.18025747 -0.3191058 0.0717453 -0.18950316 0.13657227 -0.07586226 -0.10451182
0.08962624 0.12676878 0.41956985 0.17767936 0.0359079 0.10347231 -0.025071293 0.25952095
-0.0649941 0.310236 -0.3941859 0.03564964 0.19885704 0.0127082905 0.28885618 -0.23055536
0.053525254 0.14308336 -0.21723843 0.01752489 -0.0719602 -0.069706276 0.04616087 -0.016701689
0.046595324 -0.008876006 -0.34332693 0.079163626 -0.011924986 0.03568451 -0.086250864 -0.036200166
0.038540848 0.091942325 0.042782623 -0.21611448 0.17084837 0.0056883977 -0.12960778 0.05446596
0.1218839 -0.017709943 0.055254392 -0.041508175 -0.26725563 -0.19662444 0.08851385 0.1402107
-0.11150737 0.027744066 -0.10130363 0.11280243 -0.12099062 -0.16710661 -0.058836352 0.13681646
0.17103125 0.1408066 -0.20226954 0.26623297 0.23809296 0.036532458 -0.4210326 0.045766976
0.19544627 -0.25653672 -0.028282654 0.0044017583 0.11922085 0.11081119 0.11563558 0.11361464
-0.4783517 -0.08550582 -0.053309366 0.023248946 -0.12106032 -0.086687125 0.08465178 -0.10819413
-0.16590667 -0.49259642 -0.2476445 -0.2730058 -0.07949139 -0.058416534 -0.2715178 -0.45338047
0.0239001 0.19698277 -0.00674782 -0.026673364 0.18060027 -0.28626427 -0.2230015 -0.23297025
-0.22767453 -0.2625487 0.047094367 0.07069302 0.18990947 -0.28860763 0.17573366 0.17233336
0.09898928 -0.17676388 0.18439138 -0.072190545 0.089056276 -0.18002199 -0.06806319 0.082396135
0.040432125 0.109800056 0.12821516 -0.012734934 -0.052244622 -0.15100302 -0.2830809 -0.09213989
0.20210563 0.09384037 0.08371526 0.245492 0.26376182 -0.23918155 0.059082538 -0.011911387
-0.26110443 -0.30033073 0.1075719 0.21881932 -0.064533144 -0.19508833 -0.18916076 -0.07988327
-0.38446724 -0.024179494 0.01071613 0.065940864 -0.106946446 -0.1647993 0.3912528 0.059320867

context_transformer_0/ffn_layer_1/intermediate_dense/einsum/Einsum;context_transformer_0/ffn_layer_1/intermediate_dense/Relu;context_transformer_0/ffn_layer_1/intermediate_dense/add f4 [32]
00000000: 4a86 cabd bb4e fbbd 2136 f2bd 6ae6 3dbe
00000010: c974 94be 5a43 7cbe 3f81 5bbe cc4e 84bb
00000020: 46e9 6bbe 1a43 223c b0f6 bebd ec4c 1abe
00000030: e7d0 07be 61ce 14bd e0b7 9cbd f9c8 c7bd
00000040: f707 ddbd c3c1 41bd 7ea1 08be 7358 8dbd
00000050: 8a99 91be 564e 85bd d465 9dbd 3a15 a8be
00000060: 646c edbc ab68 74be ecfa 80be 332b 88be
00000070: 6bce 6ebd 9b51 45be 0ce8 28be 57ae 61be
-0.09888895 -0.12270876 -0.118267305 -0.18544927 -0.2899535 -0.24635068 -0.21436022 -0.0040377136
-0.23038206 0.009903694 -0.09324396 -0.15068406 -0.13263284 -0.03632963 -0.07652259 -0.09755129
-0.10792535 -0.047303926 -0.13342854 -0.06901636 -0.28437454 -0.06509082 -0.07685438 -0.32828695
-0.028982349 -0.23868053 -0.25191438 -0.26595458 -0.058302324 -0.19269411 -0.16494769 -0.22039162

context_transformer_0/ffn_layer_0/norm/mul;context_transformer_0/ffn_layer_0/norm/add;context_transformer_0/ffn_layer_1/intermediate_dense/einsum/Einsum;context_transformer_0/ffn_layer_1/intermediate_dense/Relu;context_transformer_0/ffn_layer_1/intermediate_dense/add f4 [32, 32]
00000000: 3edc 18be 0baf a8bd 1e7b afbd 35eb 1ebe
00000010: bbcd 05be c915 72bd 6248 e1be bdea d2bd
00000020: f92b 553e afa9 a83e c061 adbe e1a2 633e
00000030: f2ba 6f3e 31b5 25be 785b d9bc 7bfb 873d
00000040: 608e 903d 60a9 213e 20d1 b4bd 58b8 a93e
00000050: 9a33 adbe 9bfa 1c3c 8c7f d73d 6308 f23e
00000060: 3345 d8bc d825 db3e 4f85 193e 8c29 42be
00000070: 9f66 8cbd 933d a0be e96e 20be 4c5b aa3e
00000080: 9329 1ebe 20cd 023e 4256 d7be 12d4 86be
00000090: aebd 27bd 1e1f 71be 720f 893e 418d 54be
000000a0: 7db0 88bd 98fc e53c 88f4 da3c b8d5 97be
000000b0: fa48 f03e c1a5 7e3d 2ef0 913e 6d3f 92bd
000000c0: e5d2 7cbe 6696 87bd 2b66 e43e 4c07 1c3e
000000d0: e215 423e 1ef2 40bc e076 fabd 2cb6 debd
000000e0: 3698 2bbd a0ff 303e 8cfc ac3e f71e 87be
000000f0: 46e9 a83d 117c 7d3e c6f5 5c3e 5a1c bd3d
00000100: 36bb 183d 8017 41bd 4a84 4ebe 9769 92bd
00000110: 19bb 93be a64d 3bbe 0fc2 aebe c9c2 d53d
00000120: 0610 7bbe bd56 d6bb f43d d53d a002 03be
00000130: 1293 513e 2edc a13e 8d73 c13e 5b2c 41bd
00000140: 66b1 0e3d 232d a0be a29b cfbd 21fd 76be
00000150: 0fc8 d5b8 f8f1 45bd 844d 76bd c434 81bd
00000160: 2d32 fc3d 51e7 303e 39f6 d63d db53 babe
00000170: a437 08be 509f 4b3e a4ef d13e 91a6 073e
00000180: 0cf4 0c3d 3988 19be ac44 fe3c 99b4 3e3e
00000190: 9a31 9b3c c8f1 a6bc baf0 2e3d 569c c3bd
000001a0: e7b4 5a3e 9cb7 c1be 2d29 8e3d a2a4 60bc
000001b0: cad5 67bd 5b7c 113e c157 b8bd 8756 833e
000001c0: fdcb 02be 071d e03d 6447 b93d e117 663e
000001d0: 3734 873e c2a3 94bd 98fe 34be 3c1e 423e
000001e0: e961 fabd cd0e c03e 39f4 1a3e 3782 31bf
000001f0: 8e25 18be e036 a73e 6c00 b63d 8588 8f3c
00000200: 3fde 833c 8349 b3bd 6a1f 82be da17 bdbe
00000210: c77c b1bd bdee 28be 2b37 513e da0a 75be
00000220: 6429 d83d b731 57bb 929e 61bc bb69 5ebe
00000230: 6468 ac3d 0344 98be 7db0 aa3e 9256 37be
00000240: 2a55 053e 263a 593e 7f09 503c 02e3 2bbd
00000250: 11da 483d 2bfc 913d e219 a93e 5171 ad3c
00000260: fffe 373e e7d9 bfbb 65e3 303e 708e bc3d
00000270: 19d9 52be c87d 11bd de43 2ebe 4395 5c3e
00000280: 9043 22be 4a75 4d3e 3a4c 9abd 499e b53e
00000290: 4a7f 153e e691 d63d c72c 34be 4dcc f8bd
000002a0: dea0 f33b 5ff9 bf3d 5648 8b3e f2d8 a63d
000002b0: 887c 0c3e b133 b83d 5e0f 4e3e d6ee 6c3d
000002c0: 665d b9be 3c37 acbe 9d3e a03e 873d 383e
000002d0: a23c 60bd abf2 83bd 5bd4 6a3d b8b4 eabd
000002e0: ac6b 2bbe e118 d7bd 5fd3 d63d 8252 203e
000002f0: dbf2 af3e 27c0 c43e 2826 6b3e f1c1 373e
00000300: 117b a7be 09ae 893e 8197 40bf db74 c8be
00000310: ea03 863e 281d 9e3e e809 1a3e 664d 98bd
00000320: 13d7 d23e c8dc 8bbe c691 f83d e29c b7bd
00000330: 916e 22be 443e aabd ece0 8e3d 965b 46bd
00000340: 3c06 3d3e 1923 3b3e 65d9 073e 53e8 dabd
00000350: f4e5 45bd e86a c8bd 6e89 5f3e 19e6 7d3e
00000360: 9d3d 03bf 720a e03c 0853 27bd 25a6 20be
00000370: 381a 78be 78f8 063e c6ca f83b 9d96 60be
00000380: 335f 89be d74e 7dbe 335b 67be ba15 273d
00000390: 922c 813e 571e 343e 0f24 56bd 39ce 2f3e
000003a0: ac01 3dbd e3cd afbd 5e5e 0b3e b04f d0bd
000003b0: d48e b33e 89aa 48be adb2 32be 5d5d 3dbe
000003c0: 795a c73c b44a efbe 0f55 dcbd 28e1 9f3d
000003d0: c0a3 8c3d 5909 a4be 0ee5 c8bd 8091 533e
000003e0: 3ef1 10be 2633 3b3e ba5c 9abe 3c7e 73be
000003f0: aad9 0abe e54c d4be 1157 09bc dcc8 7bbe
-0.14927766 -0.08236512 -0.085684046 -0.15519412 -0.13066761 -0.059102807 -0.44000536 -0.10298679
0.20817555 0.32941958 -0.3386364 0.22230102 0.23411158 -0.161824 -0.026532874 0.06639763
0.07058406 0.15787268 -0.0882895 0.33148456 -0.3382843 0.009581233 0.105223745 0.47272024
-0.026400184 0.4280231 0.1499226 -0.18961161 -0.06855511 -0.31296977 -0.15667309 0.3327278
-0.15445547 0.12773561 -0.42057997 -0.26333672 -0.040952377 -0.23547027 0.26769596 -0.20757009
-0.066742875 0.028074548 0.02672793 -0.29655242 0.46930677 0.062169794 0.28503555 -0.07141004
-0.24689825 -0.06620483 0.44609198 0.15237159 0.1895366 -0.011776475 -0.12229705 -0.1087459
-0.041893207 0.17285013 0.33786428 -0.26390812 0.082476184 0.24754359 0.2157813 0.09233923
0.037287913 -0.047141552 -0.20167652 -0.07149046 -0.28853682 -0.1829134 -0.3413243 0.10437543
-0.24517831 -0.0065411017 0.10412207 -0.1279397 0.20466259 0.31613296 0.3778347 -0.04716144
0.03483715 -0.31284437 -0.101371065 -0.24119999 -0.00010193895 -0.048326463 -0.06013252 -0.06308892
0.12314258 0.1727574 0.10496182 -0.36392102 -0.13302475 0.19884992 0.41003144 0.13247134
0.03441243 -0.14993371 0.031038605 0.1862358 0.01894455 -0.020378962 0.042710043 -0.09551303
0.21358071 -0.37835395 0.069414474 -0.0137111265 -0.05660037 0.14207594 -0.09001113 0.25651953
-0.12773128 0.109430365 0.0904682 0.22470047 0.26407024 -0.07257797 -0.17675245 0.18956846
-0.12225706 0.37511292 0.15132226 -0.6933932 -0.14858076 0.32659054 0.08886799 0.017521152
0.016097186 -0.087542556 -0.25414592 -0.3693226 -0.086663775 -0.16497321 0.20431201 -0.23929921
0.1055477 -0.003283603 -0.013770716 -0.2172002 0.084183484 -0.2973939 0.33337775 -0.17904118
0.13020769 0.21213588 0.012697577 -0.04196454 0.04903609 0.07128175 0.3302756 0.021172198
0.17968367 -0.0058548334 0.17274244 0.09206855 -0.20590629 -0.035520345 -0.17018077 0.21541314
-0.15846086 0.20064273 -0.0753407 0.35472324 0.14599338 0.10477047 -0.17595206 -0.12148342
0.0074349483 0.09373736 0.27203625 0.08146848 0.1371938 0.08994234 0.2012305 0.05784496
-0.3620407 -0.3363589 0.3129777 0.17992221 -0.054745324 -0.064427696 0.057331424 -0.114602506
-0.16740292 -0.10502792 0.104895346 0.15656474 0.34364972 0.3842785 0.22963774 0.17945077
-0.3271108 0.2689059 -0.75231177 -0.39151654 0.2617486 0.3088162 0.15042841 -0.074366376
0.41179714 -0.2731688 0.12137179 -0.0896547 -0.1586249 -0.083126575 0.06976494 -0.048427187
0.1845941 0.18275107 0.13266523 -0.106888436 -0.048315004 -0.09786016 0.21829769 0.24794807
-0.5126589 0.02734873 -0.04085067 -0.15688379 -0.24228752 0.13180721 0.007592532 -0.21932454
-0.26830444 -0.24737106 -0.22593383 0.040792204 0.25229317 0.17589699 -0.052280482 0.17168511
-0.046144173 -0.08584192 0.13610217 -0.10171449 0.35069907 -0.19596304 -0.17450972 -0.18492647
0.024335133 -0.4673668 -0.10758411 0.07806617 0.0686717 -0.32038382 -0.09809314 0.20660973
-0.14154527 0.1828123 -0.3014887 -0.23778623 -0.13559595 -0.41464916 -0.008382575 -0.2458834

context_transformer_0/ffn_layer_2/intermediate_dense/einsum/Einsum;context_transformer_0/ffn_layer_2/intermediate_dense/Relu;context_transformer_0/ffn_layer_2/intermediate_dense/add f4 [32]
00000000: 647e d4be cbce 86be f67a 87bc fb24 9abe
00000010: f828 9fbe 8625 8e3b abe3 fcbc 45d6 8ebe
00000020: f7f1 abbe 59ee adbe 1085 69be f136 cebd
00000030: 7049 8fbe 82c6 1f3b 04f8 34be 199d 36be
00000040: eec7 3b3b b21c 4fbe 8a34 33be 3fdf 27be
00000050: d27c 96be dc15 4fbe 24fe 82bd c612 59bd
00000060: b99f bfbd 9b6b 433a 2c14 81be ca76 17bd
00000070: ac15 d9bd 331d 91be 7118 703d 1a13 cbbe
-0.41502678 -0.26329646 -0.016538125 -0.3010634 -0.31085944 0.0043379692 -0.03087028 -0.2789785
-0.33583042 -0.33970907 -0.22804666 -0.10069073 -0.27985716 0.0024379794 -0.17672735 -0.17833365
0.0028653103 -0.2022579 -0.17500511 -0.16393755 -0.29392105 -0.20223182 -0.0639613 -0.05299642
-0.093566366 0.0007454694 -0.25210702 -0.03697852 -0.10599837 -0.2834259 0.05861706 -0.3966301

context_transformer_0/ffn_layer_1/norm/mul;context_transformer_0/ffn_layer_1/norm/add;context_transformer_0/ffn_layer_2/intermediate_dense/einsum/Einsum;context_transformer_0/ffn_layer_2/intermediate_dense/Relu;context_transformer_0/ffn_layer_2/intermediate_dense/add f4 [32, 32]
00000000: 8602 e838 5cee fa3c b329 123d be7c 5bbe
00000010: 6897 f9bd 3064 0e3e 1a1f 3ebd 9c9e 083c
00000020: fe19 3cbe aa9e e0bc 2431 b0bd 6dc2 3b3e
00000030: 6f6d a4ba fcfb 203e 521b 083e 6fde f33d
00000040: fa06 8abe 89b7 c7bd ebe7 a1be d9fd 78be
00000050: 0280 bebd 50ea e6bd 1a66 0cbe d605 a5bc
00000060: 178d 243e 3589 98be f3e3 443e a7e4 953d
00000070: 92b0 f4bd bbef 503e 72d3 643d 279d a0be
00000080: e190 6e3d 612a 54be d03e 25be 3a47 693d
00000090: 09ef 63bc 4353 9fbd 5836 233d 5804 a53c
000000a0: 9a97 4cbe e273 fa3b d983 8abd bac9 993d
000000b0: 5d31 c0bd 5723 fabd 99cc 073c 6623 113e
000000c0: de1e c63c dc0e 183d 4def ec3e 6bae b13d
000000d0: 5665 b03d 7243 f03c 234f 353e ee6d 2ebd
000000e0: 8bd4 2a3e 6ae5 e1bc 89c3 e33d 8a4c dc3d
000000f0: 6f26 a23d cdac 043d 9f6f e9bb 2036 8cbe
00000100: 8e2e cbbd 26f4 0c3e 72f3 103d 63bc b6be
00000110: ca1d 723d 920e b8bc 695c a43e 712c 52bd
00000120: b01c 57be 2410 803d 9299 4b3d b003 8ebd
00000130: 69e4 343d 0dce 593e 9bfa d53d 21ec 623e
00000140: 0993 dbbc 1ce0 a6bd 4330 34be d647 213e
00000150: 70bd 563d adf6 a53d 12ed 95be fd9b 4cbe
00000160: c1c3 86bd 29f7 393e 5c34 7d3e 3b58 33bd
00000170: c38e fa3b c38b 313e 133e a93d 5f19 9fbd
00000180: 4021 e5bd d896 30be f953 343e 4250 9ebc
00000190: d4ca 5dbb 00f9 f2bd 2a88 03be 451c bb3c
000001a0: 3fa8 393d 9409 b53e e7ba 8fbe 99f9 eebd
000001b0: 957f 0c3e 8af3 233c 0a35 bb3d 4825 433e
000001c0: 0e00 88bd 0985 e63d c374 0a3e c38f 0ebe
000001d0: 067a 963e 5975 8e3e 03dd 6ebe 622d e53c
000001e0: e09d a43d 92d7 3bba 05a5 1e3d ac45 3d3e
000001f0: fac1 693e 6db3 2c3e 725f 193d cdad 8ebd
00000200: 54b3 e43d b6e6 08bd 3218 893d 9354 bd3d
00000210: 6137 dcbc 37b4 b43e 7f33 babc e056 c83d
00000220: 4190 52be 9b28 8dbe 0f2c 61bd 2ae0 c4bd
00000230: a12c 31bd 16bf d83d 2540 07be 1325 e7bd
00000240: 9bc0 c73c fbae 933e de1e cabc ed1b 35be
00000250: 7ab5 bbbc 87e9 933e 33ba 103c efab 863e
00000260: dec2 91bd a0f6 86bb 31a5 023e 73e1 963d
00000270: 3732 313d 208f 5b3e bef3 133e 5180 393c
00000280: 54ce 2abe 305c cc3d fab8 0cbe 7328 afbe
00000290: 5d8d 183e d57c 14bc 23cb 2d3e fd89 583e
000002a0: f364 21be e7dc 5a3d c360 3abd 3c38 f13c
000002b0: 4eaf b6bd 43a9 c8bd 6e25 3abb 27b6 43bd
000002c0: eb80 2a3e 88f3 65bd b897 56be 9533 44be
000002d0: 1ef6 44be c789 a7bd 8f88 783d bad0 59bb
000002e0: 8145 92be 077b 25be 9a1a 0a3e 9557 75bd
000002f0: 5ba1 a9bd 055f 97be db30 a13e 384c 31be
00000300: 0088 813e 8308 1c3e 89e2 32be 2427 82be
00000310: 8766 26bd 14ec 15be 9520 02be 1289 aa3d
00000320: 71d2 593d d4dc 7d3e 664a 83bc 1e6f 483e
00000330: 8abd 9fbd 602e 983d 31fd 8cbd 93a6 acbd
00000340: 365c 08be 1b6b 613d bcc0 f23d 2437 263d
00000350: db0e 123e 1820 83be 0899 c03e 4240 6b3e
00000360: 57df 8c3d cf63 8b3e f16e f33e 3371 b4be
00000370: 97d1 f5bd 02ee 88bd 7098 bebd 2463 143d
00000380: 8265 80bd 4ba5 e4be f60b 6cbd 088a 943d
00000390: b882 533d 9e97 0a3e 13ab 48be 4248 59bc
000003a0: 35aa 423e 831e 083c cfd8 4dbd 0a0c 2f3d
000003b0: 202d c2bd 9522 12bd 791a 0e3e befc 6b3d
000003c0: 7448 3b3e c420 903d 7157 16be d6b8 923d
000003d0: 328e 9fbd ab0d fcbd 5a3d 263c efb3 213e
000003e0: 013e b93c d79a f93d 3102 003d b845 c4bd
000003f0: 8de6 8dbe 5f4d 763e db63 7dbd a899 083e
0.00011063092 0.030631237 0.0356843 -0.21434304 -0.121870816 0.13905406 -0.04641638 0.008338597
-0.1836929 -0.027419407 -0.08603123 0.18335886 -0.0012544821 0.15721124 0.13291672 0.1190766
-0.26958448 -0.097518034 -0.31622252 -0.24315585 -0.09301759 -0.1127516 -0.13710824 -0.020144384
0.16069447 -0.2979218 0.1922758 0.073190026 -0.119477406 0.2040395 0.055865712 -0.31369898
0.058243636 -0.20719291 -0.16137242 0.056952693 -0.013911971 -0.07779553 0.039846748 0.020143673
-0.19979706 0.007643209 -0.06763429 0.075091794 -0.09384415 -0.12213772 0.008288526 0.1417366
0.02418464 0.037123546 0.46276322 0.08675846 0.08613078 0.029329035 0.1770597 -0.042585306
0.16682641 -0.027575213 0.1112128 0.10756786 0.07917487 0.03239136 -0.007123902 -0.27385044
-0.09920989 0.1376501 0.035388418 -0.35690603 0.05911044 -0.022467885 0.32101753 -0.051311914
-0.21007037 0.062530786 0.049707003 -0.06934297 0.04416314 0.21270008 0.1044819 0.22160389
-0.02680351 -0.08148214 -0.17596535 0.1575006 0.052426755 0.0810369 -0.29282433 -0.1998138
-0.06580306 0.1816069 0.24727005 -0.043785315 0.007646413 0.17338471 0.08263793 -0.07768511
-0.111879826 -0.17245042 0.17610158 -0.01932538 -0.0033842819 -0.11863899 -0.12844911 0.022840628
0.045326468 0.3535887 -0.28072283 -0.11668701 0.13720544 0.010006795 0.09140976 0.1905719
-0.066406354 0.11255843 0.13521104 -0.13922028 0.29389971 0.27823904 -0.23326497 0.027975742
0.08037925 -0.00071656064 0.038731594 0.18483609 0.22827902 0.1686532 0.03744454 -0.069667436
0.111670166 -0.033423148 0.06694068 0.09244647 -0.026881875 0.35293743 -0.022729633 0.09782195
-0.20562841 -0.27570042 -0.05497366 -0.096130684 -0.043255452 0.10583322 -0.13208063 -0.11286368
0.024383834 0.28844437 -0.024672922 -0.17686434 -0.022913683 0.28889105 0.008833456 0.2630305
-0.07117246 -0.0041187555 0.12758328 0.0736722 0.04326078 0.21441317 0.14448449 0.011322097
-0.1668027 0.09978521 -0.13742438 -0.34210548 0.14897676 -0.009062965 0.16972022 0.21146388
-0.15761165 0.053433325 -0.045502435 0.02944576 -0.089201555 -0.09797909 -0.0028403657 -0.047781136
0.16650741 -0.056140453 -0.20956314 -0.19160302 -0.19234511 -0.08180576 0.060677107 -0.0033235983
-0.28568652 -0.16160212 0.1348671 -0.059897978 -0.08282729 -0.29564682 0.31482586 -0.17314231
0.25299072 0.15237622 -0.17469229 -0.25420487 -0.04062512 -0.14640838 -0.12707742 0.08326925
0.05317921 0.2479127 -0.016026687 0.19573638 -0.077998236 0.0743072 -0.0688423 -0.08430209
-0.13316426 0.055033784 0.118531674 0.04057993 0.1426348 -0.25610423 0.37616754 0.22973731
0.06878536 0.27224585 0.4754558 -0.35242614 -0.12002867 -0.066860214 -0.09306419 0.03622736
-0.06269361 -0.4465736 -0.057628594 0.0725289 0.051638335 0.135344 -0.1959651 -0.0132618565
0.19010241 0.008308056 -0.050255593 0.04273609 -0.09481263 -0.03567751 0.13877286 0.05761408
0.18289357 0.070374995 -0.14681794 0.07164161 -0.077907935 -0.123072945 0.010146463 0.15791295
0.022612574 0.121877365 0.03125209 -0.0958361 -0.2771496 0.24052952 -0.061862808 0.13339865

context_transformer_0/ffn_layer_3/intermediate_dense/einsum/Einsum;context_transformer_0/ffn_layer_3/intermediate_dense/Relu;context_transformer_0/ffn_layer_3/intermediate_dense/add f4 [32]
00000000: 7f8b 29be 5d07 a1be 248b 25be 297b 6cbe
00000010: ba62 3cbe b605 07ba 69ee 83bd 6d64 11be
00000020: 099d b4bd 0eb8 26be e34b c9bd c244 02be
00000030: 1f68 c7bd e8a5 54bd 183f 0bbd c30d 1fbe
00000040: 12b8 ddbe 1904 d3bd 915c 85be b6d0 bf3c
00000050: 0721 06be 6a35 1ebe 7fc0 babd 1e5d b1be
00000060: cd8e 95be 5140 05be 65ec 5dbd e379 a8bd
00000070: 08af 00be 8ad3 00be 8ea2 16be ee7d d8bc
-0.1655712 -0.3145093 -0.16166359 -0.23093857 -0.18397036 -0.00051506923 -0.064419575 -0.14198466
-0.088190146 -0.16281149 -0.09828927 -0.12721542 -0.097366564 -0.051916033 -0.033995718 -0.15532593
-0.43304497 -0.10303516 -0.26047185 0.02341495 -0.13098536 -0.15450063 -0.09118747 -0.34641355
-0.2921051 -0.13012816 -0.05418052 -0.08226373 -0.12566769 -0.12580696 -0.14710447 -0.026427235
